<?xml version="1.0" ?>
<net name="torch-jit-export" version="11">
	<layers>
		<layer id="0" name="input" type="Parameter" version="opset1">
			<data shape="1,3,320,320" element_type="f32"/>
			<rt_info>
				<attribute name="fused_names" version="0" value="input"/>
				<attribute name="old_api_map_element_type" version="0" value="f16"/>
			</rt_info>
			<output>
				<port id="0" precision="FP32" names="input">
					<dim>1</dim>
					<dim>3</dim>
					<dim>320</dim>
					<dim>320</dim>
				</port>
			</output>
		</layer>
		<layer id="1" name="1709_compressed" type="Const" version="opset1">
			<data element_type="f16" shape="1600, 4" offset="0" size="12800"/>
			<output>
				<port id="0" precision="FP16">
					<dim>1600</dim>
					<dim>4</dim>
				</port>
			</output>
		</layer>
		<layer id="2" name="1709" type="Convert" version="opset1">
			<data destination_type="f32"/>
			<rt_info>
				<attribute name="decompression" version="0"/>
				<attribute name="fused_names" version="0" value="1709"/>
			</rt_info>
			<input>
				<port id="0" precision="FP16">
					<dim>1600</dim>
					<dim>4</dim>
				</port>
			</input>
			<output>
				<port id="1" precision="FP32" names="1709">
					<dim>1600</dim>
					<dim>4</dim>
				</port>
			</output>
		</layer>
		<layer id="3" name="1682_compressed" type="Const" version="opset1">
			<data element_type="f16" shape="6400, 1" offset="12800" size="12800"/>
			<output>
				<port id="0" precision="FP16">
					<dim>6400</dim>
					<dim>1</dim>
				</port>
			</output>
		</layer>
		<layer id="4" name="1682" type="Convert" version="opset1">
			<data destination_type="f32"/>
			<rt_info>
				<attribute name="decompression" version="0"/>
				<attribute name="fused_names" version="0" value="1682"/>
			</rt_info>
			<input>
				<port id="0" precision="FP16">
					<dim>6400</dim>
					<dim>1</dim>
				</port>
			</input>
			<output>
				<port id="1" precision="FP32" names="1682">
					<dim>6400</dim>
					<dim>1</dim>
				</port>
			</output>
		</layer>
		<layer id="5" name="2089_compressed" type="Const" version="opset1">
			<data element_type="f16" shape="24, 3, 3, 3" offset="25600" size="1296"/>
			<output>
				<port id="0" precision="FP16">
					<dim>24</dim>
					<dim>3</dim>
					<dim>3</dim>
					<dim>3</dim>
				</port>
			</output>
		</layer>
		<layer id="6" name="2089" type="Convert" version="opset1">
			<data destination_type="f32"/>
			<rt_info>
				<attribute name="decompression" version="0"/>
				<attribute name="fused_names" version="0" value="2089"/>
			</rt_info>
			<input>
				<port id="0" precision="FP16">
					<dim>24</dim>
					<dim>3</dim>
					<dim>3</dim>
					<dim>3</dim>
				</port>
			</input>
			<output>
				<port id="1" precision="FP32" names="2089">
					<dim>24</dim>
					<dim>3</dim>
					<dim>3</dim>
					<dim>3</dim>
				</port>
			</output>
		</layer>
		<layer id="7" name="Convolution_276" type="Convolution" version="opset1">
			<data strides="2, 2" dilations="1, 1" pads_begin="1, 1" pads_end="1, 1" auto_pad="explicit"/>
			<rt_info>
				<attribute name="fused_names" version="0" value="Convolution_276"/>
			</rt_info>
			<input>
				<port id="0" precision="FP32">
					<dim>1</dim>
					<dim>3</dim>
					<dim>320</dim>
					<dim>320</dim>
				</port>
				<port id="1" precision="FP32">
					<dim>24</dim>
					<dim>3</dim>
					<dim>3</dim>
					<dim>3</dim>
				</port>
			</input>
			<output>
				<port id="2" precision="FP32">
					<dim>1</dim>
					<dim>24</dim>
					<dim>160</dim>
					<dim>160</dim>
				</port>
			</output>
		</layer>
		<layer id="8" name="Reshape_296_compressed" type="Const" version="opset1">
			<data element_type="f16" shape="1, 24, 1, 1" offset="26896" size="48"/>
			<output>
				<port id="0" precision="FP16">
					<dim>1</dim>
					<dim>24</dim>
					<dim>1</dim>
					<dim>1</dim>
				</port>
			</output>
		</layer>
		<layer id="9" name="Reshape_296" type="Convert" version="opset1">
			<data destination_type="f32"/>
			<rt_info>
				<attribute name="decompression" version="0"/>
			</rt_info>
			<input>
				<port id="0" precision="FP16">
					<dim>1</dim>
					<dim>24</dim>
					<dim>1</dim>
					<dim>1</dim>
				</port>
			</input>
			<output>
				<port id="1" precision="FP32">
					<dim>1</dim>
					<dim>24</dim>
					<dim>1</dim>
					<dim>1</dim>
				</port>
			</output>
		</layer>
		<layer id="10" name="2088" type="Add" version="opset1">
			<data auto_broadcast="numpy"/>
			<rt_info>
				<attribute name="fused_names" version="0" value="2088, Concat_295, Constant_279, Reshape_296"/>
			</rt_info>
			<input>
				<port id="0" precision="FP32">
					<dim>1</dim>
					<dim>24</dim>
					<dim>160</dim>
					<dim>160</dim>
				</port>
				<port id="1" precision="FP32">
					<dim>1</dim>
					<dim>24</dim>
					<dim>1</dim>
					<dim>1</dim>
				</port>
			</input>
			<output>
				<port id="2" precision="FP32" names="2088">
					<dim>1</dim>
					<dim>24</dim>
					<dim>160</dim>
					<dim>160</dim>
				</port>
			</output>
		</layer>
		<layer id="11" name="Constant_324_compressed" type="Const" version="opset1">
			<data element_type="f16" shape="1" offset="26944" size="2"/>
			<output>
				<port id="0" precision="FP16">
					<dim>1</dim>
				</port>
			</output>
		</layer>
		<layer id="12" name="Constant_324" type="Convert" version="opset1">
			<data destination_type="f32"/>
			<rt_info>
				<attribute name="decompression" version="0"/>
				<attribute name="fused_names" version="0" value="Constant_324"/>
			</rt_info>
			<input>
				<port id="0" precision="FP16">
					<dim>1</dim>
				</port>
			</input>
			<output>
				<port id="1" precision="FP32">
					<dim>1</dim>
				</port>
			</output>
		</layer>
		<layer id="13" name="890" type="PReLU" version="opset1">
			<rt_info>
				<attribute name="fused_names" version="0" value="890"/>
			</rt_info>
			<input>
				<port id="0" precision="FP32">
					<dim>1</dim>
					<dim>24</dim>
					<dim>160</dim>
					<dim>160</dim>
				</port>
				<port id="1" precision="FP32">
					<dim>1</dim>
				</port>
			</input>
			<output>
				<port id="2" precision="FP32" names="890">
					<dim>1</dim>
					<dim>24</dim>
					<dim>160</dim>
					<dim>160</dim>
				</port>
			</output>
		</layer>
		<layer id="14" name="891" type="MaxPool" version="opset8">
			<data strides="2, 2" dilations="1, 1" pads_begin="1, 1" pads_end="1, 1" kernel="3, 3" rounding_type="floor" auto_pad="explicit" index_element_type="i64" axis="0"/>
			<rt_info>
				<attribute name="fused_names" version="0" value="891"/>
			</rt_info>
			<input>
				<port id="0" precision="FP32">
					<dim>1</dim>
					<dim>24</dim>
					<dim>160</dim>
					<dim>160</dim>
				</port>
			</input>
			<output>
				<port id="1" precision="FP32" names="891">
					<dim>1</dim>
					<dim>24</dim>
					<dim>80</dim>
					<dim>80</dim>
				</port>
				<port id="2" precision="I64">
					<dim>1</dim>
					<dim>24</dim>
					<dim>80</dim>
					<dim>80</dim>
				</port>
			</output>
		</layer>
		<layer id="15" name="Reshape_334_compressed" type="Const" version="opset1">
			<data element_type="f16" shape="24, 1, 1, 3, 3" offset="26946" size="432"/>
			<output>
				<port id="0" precision="FP16">
					<dim>24</dim>
					<dim>1</dim>
					<dim>1</dim>
					<dim>3</dim>
					<dim>3</dim>
				</port>
			</output>
		</layer>
		<layer id="16" name="Reshape_334" type="Convert" version="opset1">
			<data destination_type="f32"/>
			<rt_info>
				<attribute name="decompression" version="0"/>
			</rt_info>
			<input>
				<port id="0" precision="FP16">
					<dim>24</dim>
					<dim>1</dim>
					<dim>1</dim>
					<dim>3</dim>
					<dim>3</dim>
				</port>
			</input>
			<output>
				<port id="1" precision="FP32">
					<dim>24</dim>
					<dim>1</dim>
					<dim>1</dim>
					<dim>3</dim>
					<dim>3</dim>
				</port>
			</output>
		</layer>
		<layer id="17" name="GroupConvolution_400" type="GroupConvolution" version="opset1">
			<data strides="2, 2" pads_begin="1, 1" pads_end="1, 1" dilations="1, 1" auto_pad="explicit"/>
			<rt_info>
				<attribute name="fused_names" version="0" value="GroupConvolution_400, Reshape_334"/>
			</rt_info>
			<input>
				<port id="0" precision="FP32">
					<dim>1</dim>
					<dim>24</dim>
					<dim>80</dim>
					<dim>80</dim>
				</port>
				<port id="1" precision="FP32">
					<dim>24</dim>
					<dim>1</dim>
					<dim>1</dim>
					<dim>3</dim>
					<dim>3</dim>
				</port>
			</input>
			<output>
				<port id="2" precision="FP32">
					<dim>1</dim>
					<dim>24</dim>
					<dim>40</dim>
					<dim>40</dim>
				</port>
			</output>
		</layer>
		<layer id="18" name="Reshape_420_compressed" type="Const" version="opset1">
			<data element_type="f16" shape="1, 24, 1, 1" offset="27378" size="48"/>
			<output>
				<port id="0" precision="FP16">
					<dim>1</dim>
					<dim>24</dim>
					<dim>1</dim>
					<dim>1</dim>
				</port>
			</output>
		</layer>
		<layer id="19" name="Reshape_420" type="Convert" version="opset1">
			<data destination_type="f32"/>
			<rt_info>
				<attribute name="decompression" version="0"/>
			</rt_info>
			<input>
				<port id="0" precision="FP16">
					<dim>1</dim>
					<dim>24</dim>
					<dim>1</dim>
					<dim>1</dim>
				</port>
			</input>
			<output>
				<port id="1" precision="FP32">
					<dim>1</dim>
					<dim>24</dim>
					<dim>1</dim>
					<dim>1</dim>
				</port>
			</output>
		</layer>
		<layer id="20" name="2091" type="Add" version="opset1">
			<data auto_broadcast="numpy"/>
			<rt_info>
				<attribute name="fused_names" version="0" value="2091, Concat_419, Constant_403, Reshape_420"/>
			</rt_info>
			<input>
				<port id="0" precision="FP32">
					<dim>1</dim>
					<dim>24</dim>
					<dim>40</dim>
					<dim>40</dim>
				</port>
				<port id="1" precision="FP32">
					<dim>1</dim>
					<dim>24</dim>
					<dim>1</dim>
					<dim>1</dim>
				</port>
			</input>
			<output>
				<port id="2" precision="FP32" names="2091">
					<dim>1</dim>
					<dim>24</dim>
					<dim>40</dim>
					<dim>40</dim>
				</port>
			</output>
		</layer>
		<layer id="21" name="2095_compressed" type="Const" version="opset1">
			<data element_type="f16" shape="58, 24, 1, 1" offset="27426" size="2784"/>
			<output>
				<port id="0" precision="FP16">
					<dim>58</dim>
					<dim>24</dim>
					<dim>1</dim>
					<dim>1</dim>
				</port>
			</output>
		</layer>
		<layer id="22" name="2095" type="Convert" version="opset1">
			<data destination_type="f32"/>
			<rt_info>
				<attribute name="decompression" version="0"/>
				<attribute name="fused_names" version="0" value="2095"/>
			</rt_info>
			<input>
				<port id="0" precision="FP16">
					<dim>58</dim>
					<dim>24</dim>
					<dim>1</dim>
					<dim>1</dim>
				</port>
			</input>
			<output>
				<port id="1" precision="FP32" names="2095">
					<dim>58</dim>
					<dim>24</dim>
					<dim>1</dim>
					<dim>1</dim>
				</port>
			</output>
		</layer>
		<layer id="23" name="Convolution_448" type="Convolution" version="opset1">
			<data strides="1, 1" dilations="1, 1" pads_begin="0, 0" pads_end="0, 0" auto_pad="explicit"/>
			<rt_info>
				<attribute name="fused_names" version="0" value="Convolution_448"/>
			</rt_info>
			<input>
				<port id="0" precision="FP32">
					<dim>1</dim>
					<dim>24</dim>
					<dim>40</dim>
					<dim>40</dim>
				</port>
				<port id="1" precision="FP32">
					<dim>58</dim>
					<dim>24</dim>
					<dim>1</dim>
					<dim>1</dim>
				</port>
			</input>
			<output>
				<port id="2" precision="FP32">
					<dim>1</dim>
					<dim>58</dim>
					<dim>40</dim>
					<dim>40</dim>
				</port>
			</output>
		</layer>
		<layer id="24" name="Reshape_468_compressed" type="Const" version="opset1">
			<data element_type="f16" shape="1, 58, 1, 1" offset="30210" size="116"/>
			<output>
				<port id="0" precision="FP16">
					<dim>1</dim>
					<dim>58</dim>
					<dim>1</dim>
					<dim>1</dim>
				</port>
			</output>
		</layer>
		<layer id="25" name="Reshape_468" type="Convert" version="opset1">
			<data destination_type="f32"/>
			<rt_info>
				<attribute name="decompression" version="0"/>
			</rt_info>
			<input>
				<port id="0" precision="FP16">
					<dim>1</dim>
					<dim>58</dim>
					<dim>1</dim>
					<dim>1</dim>
				</port>
			</input>
			<output>
				<port id="1" precision="FP32">
					<dim>1</dim>
					<dim>58</dim>
					<dim>1</dim>
					<dim>1</dim>
				</port>
			</output>
		</layer>
		<layer id="26" name="2094" type="Add" version="opset1">
			<data auto_broadcast="numpy"/>
			<rt_info>
				<attribute name="fused_names" version="0" value="2094, Concat_467, Constant_451, Reshape_468"/>
			</rt_info>
			<input>
				<port id="0" precision="FP32">
					<dim>1</dim>
					<dim>58</dim>
					<dim>40</dim>
					<dim>40</dim>
				</port>
				<port id="1" precision="FP32">
					<dim>1</dim>
					<dim>58</dim>
					<dim>1</dim>
					<dim>1</dim>
				</port>
			</input>
			<output>
				<port id="2" precision="FP32" names="2094">
					<dim>1</dim>
					<dim>58</dim>
					<dim>40</dim>
					<dim>40</dim>
				</port>
			</output>
		</layer>
		<layer id="27" name="Constant_496_compressed" type="Const" version="opset1">
			<data element_type="f16" shape="1" offset="26944" size="2"/>
			<output>
				<port id="0" precision="FP16">
					<dim>1</dim>
				</port>
			</output>
		</layer>
		<layer id="28" name="Constant_496" type="Convert" version="opset1">
			<data destination_type="f32"/>
			<rt_info>
				<attribute name="decompression" version="0"/>
				<attribute name="fused_names" version="0" value="Constant_496"/>
			</rt_info>
			<input>
				<port id="0" precision="FP16">
					<dim>1</dim>
				</port>
			</input>
			<output>
				<port id="1" precision="FP32">
					<dim>1</dim>
				</port>
			</output>
		</layer>
		<layer id="29" name="896" type="PReLU" version="opset1">
			<rt_info>
				<attribute name="fused_names" version="0" value="896"/>
			</rt_info>
			<input>
				<port id="0" precision="FP32">
					<dim>1</dim>
					<dim>58</dim>
					<dim>40</dim>
					<dim>40</dim>
				</port>
				<port id="1" precision="FP32">
					<dim>1</dim>
				</port>
			</input>
			<output>
				<port id="2" precision="FP32" names="896">
					<dim>1</dim>
					<dim>58</dim>
					<dim>40</dim>
					<dim>40</dim>
				</port>
			</output>
		</layer>
		<layer id="30" name="2098_compressed" type="Const" version="opset1">
			<data element_type="f16" shape="58, 24, 1, 1" offset="30326" size="2784"/>
			<output>
				<port id="0" precision="FP16">
					<dim>58</dim>
					<dim>24</dim>
					<dim>1</dim>
					<dim>1</dim>
				</port>
			</output>
		</layer>
		<layer id="31" name="2098" type="Convert" version="opset1">
			<data destination_type="f32"/>
			<rt_info>
				<attribute name="decompression" version="0"/>
				<attribute name="fused_names" version="0" value="2098"/>
			</rt_info>
			<input>
				<port id="0" precision="FP16">
					<dim>58</dim>
					<dim>24</dim>
					<dim>1</dim>
					<dim>1</dim>
				</port>
			</input>
			<output>
				<port id="1" precision="FP32" names="2098">
					<dim>58</dim>
					<dim>24</dim>
					<dim>1</dim>
					<dim>1</dim>
				</port>
			</output>
		</layer>
		<layer id="32" name="Convolution_498" type="Convolution" version="opset1">
			<data strides="1, 1" dilations="1, 1" pads_begin="0, 0" pads_end="0, 0" auto_pad="explicit"/>
			<rt_info>
				<attribute name="fused_names" version="0" value="Convolution_498"/>
			</rt_info>
			<input>
				<port id="0" precision="FP32">
					<dim>1</dim>
					<dim>24</dim>
					<dim>80</dim>
					<dim>80</dim>
				</port>
				<port id="1" precision="FP32">
					<dim>58</dim>
					<dim>24</dim>
					<dim>1</dim>
					<dim>1</dim>
				</port>
			</input>
			<output>
				<port id="2" precision="FP32">
					<dim>1</dim>
					<dim>58</dim>
					<dim>80</dim>
					<dim>80</dim>
				</port>
			</output>
		</layer>
		<layer id="33" name="Reshape_518_compressed" type="Const" version="opset1">
			<data element_type="f16" shape="1, 58, 1, 1" offset="33110" size="116"/>
			<output>
				<port id="0" precision="FP16">
					<dim>1</dim>
					<dim>58</dim>
					<dim>1</dim>
					<dim>1</dim>
				</port>
			</output>
		</layer>
		<layer id="34" name="Reshape_518" type="Convert" version="opset1">
			<data destination_type="f32"/>
			<rt_info>
				<attribute name="decompression" version="0"/>
			</rt_info>
			<input>
				<port id="0" precision="FP16">
					<dim>1</dim>
					<dim>58</dim>
					<dim>1</dim>
					<dim>1</dim>
				</port>
			</input>
			<output>
				<port id="1" precision="FP32">
					<dim>1</dim>
					<dim>58</dim>
					<dim>1</dim>
					<dim>1</dim>
				</port>
			</output>
		</layer>
		<layer id="35" name="2097" type="Add" version="opset1">
			<data auto_broadcast="numpy"/>
			<rt_info>
				<attribute name="fused_names" version="0" value="2097, Concat_517, Constant_501, Reshape_518"/>
			</rt_info>
			<input>
				<port id="0" precision="FP32">
					<dim>1</dim>
					<dim>58</dim>
					<dim>80</dim>
					<dim>80</dim>
				</port>
				<port id="1" precision="FP32">
					<dim>1</dim>
					<dim>58</dim>
					<dim>1</dim>
					<dim>1</dim>
				</port>
			</input>
			<output>
				<port id="2" precision="FP32" names="2097">
					<dim>1</dim>
					<dim>58</dim>
					<dim>80</dim>
					<dim>80</dim>
				</port>
			</output>
		</layer>
		<layer id="36" name="Constant_546_compressed" type="Const" version="opset1">
			<data element_type="f16" shape="1" offset="26944" size="2"/>
			<output>
				<port id="0" precision="FP16">
					<dim>1</dim>
				</port>
			</output>
		</layer>
		<layer id="37" name="Constant_546" type="Convert" version="opset1">
			<data destination_type="f32"/>
			<rt_info>
				<attribute name="decompression" version="0"/>
				<attribute name="fused_names" version="0" value="Constant_546"/>
			</rt_info>
			<input>
				<port id="0" precision="FP16">
					<dim>1</dim>
				</port>
			</input>
			<output>
				<port id="1" precision="FP32">
					<dim>1</dim>
				</port>
			</output>
		</layer>
		<layer id="38" name="899" type="PReLU" version="opset1">
			<rt_info>
				<attribute name="fused_names" version="0" value="899"/>
			</rt_info>
			<input>
				<port id="0" precision="FP32">
					<dim>1</dim>
					<dim>58</dim>
					<dim>80</dim>
					<dim>80</dim>
				</port>
				<port id="1" precision="FP32">
					<dim>1</dim>
				</port>
			</input>
			<output>
				<port id="2" precision="FP32" names="899">
					<dim>1</dim>
					<dim>58</dim>
					<dim>80</dim>
					<dim>80</dim>
				</port>
			</output>
		</layer>
		<layer id="39" name="Reshape_555_compressed" type="Const" version="opset1">
			<data element_type="f16" shape="58, 1, 1, 3, 3" offset="33226" size="1044"/>
			<output>
				<port id="0" precision="FP16">
					<dim>58</dim>
					<dim>1</dim>
					<dim>1</dim>
					<dim>3</dim>
					<dim>3</dim>
				</port>
			</output>
		</layer>
		<layer id="40" name="Reshape_555" type="Convert" version="opset1">
			<data destination_type="f32"/>
			<rt_info>
				<attribute name="decompression" version="0"/>
			</rt_info>
			<input>
				<port id="0" precision="FP16">
					<dim>58</dim>
					<dim>1</dim>
					<dim>1</dim>
					<dim>3</dim>
					<dim>3</dim>
				</port>
			</input>
			<output>
				<port id="1" precision="FP32">
					<dim>58</dim>
					<dim>1</dim>
					<dim>1</dim>
					<dim>3</dim>
					<dim>3</dim>
				</port>
			</output>
		</layer>
		<layer id="41" name="GroupConvolution_621" type="GroupConvolution" version="opset1">
			<data strides="2, 2" pads_begin="1, 1" pads_end="1, 1" dilations="1, 1" auto_pad="explicit"/>
			<rt_info>
				<attribute name="fused_names" version="0" value="GroupConvolution_621, Reshape_555"/>
			</rt_info>
			<input>
				<port id="0" precision="FP32">
					<dim>1</dim>
					<dim>58</dim>
					<dim>80</dim>
					<dim>80</dim>
				</port>
				<port id="1" precision="FP32">
					<dim>58</dim>
					<dim>1</dim>
					<dim>1</dim>
					<dim>3</dim>
					<dim>3</dim>
				</port>
			</input>
			<output>
				<port id="2" precision="FP32">
					<dim>1</dim>
					<dim>58</dim>
					<dim>40</dim>
					<dim>40</dim>
				</port>
			</output>
		</layer>
		<layer id="42" name="Reshape_641_compressed" type="Const" version="opset1">
			<data element_type="f16" shape="1, 58, 1, 1" offset="34270" size="116"/>
			<output>
				<port id="0" precision="FP16">
					<dim>1</dim>
					<dim>58</dim>
					<dim>1</dim>
					<dim>1</dim>
				</port>
			</output>
		</layer>
		<layer id="43" name="Reshape_641" type="Convert" version="opset1">
			<data destination_type="f32"/>
			<rt_info>
				<attribute name="decompression" version="0"/>
			</rt_info>
			<input>
				<port id="0" precision="FP16">
					<dim>1</dim>
					<dim>58</dim>
					<dim>1</dim>
					<dim>1</dim>
				</port>
			</input>
			<output>
				<port id="1" precision="FP32">
					<dim>1</dim>
					<dim>58</dim>
					<dim>1</dim>
					<dim>1</dim>
				</port>
			</output>
		</layer>
		<layer id="44" name="2100" type="Add" version="opset1">
			<data auto_broadcast="numpy"/>
			<rt_info>
				<attribute name="fused_names" version="0" value="2100, Concat_640, Constant_624, Reshape_641"/>
			</rt_info>
			<input>
				<port id="0" precision="FP32">
					<dim>1</dim>
					<dim>58</dim>
					<dim>40</dim>
					<dim>40</dim>
				</port>
				<port id="1" precision="FP32">
					<dim>1</dim>
					<dim>58</dim>
					<dim>1</dim>
					<dim>1</dim>
				</port>
			</input>
			<output>
				<port id="2" precision="FP32" names="2100">
					<dim>1</dim>
					<dim>58</dim>
					<dim>40</dim>
					<dim>40</dim>
				</port>
			</output>
		</layer>
		<layer id="45" name="2104_compressed" type="Const" version="opset1">
			<data element_type="f16" shape="58, 58, 1, 1" offset="34386" size="6728"/>
			<output>
				<port id="0" precision="FP16">
					<dim>58</dim>
					<dim>58</dim>
					<dim>1</dim>
					<dim>1</dim>
				</port>
			</output>
		</layer>
		<layer id="46" name="2104" type="Convert" version="opset1">
			<data destination_type="f32"/>
			<rt_info>
				<attribute name="decompression" version="0"/>
				<attribute name="fused_names" version="0" value="2104"/>
			</rt_info>
			<input>
				<port id="0" precision="FP16">
					<dim>58</dim>
					<dim>58</dim>
					<dim>1</dim>
					<dim>1</dim>
				</port>
			</input>
			<output>
				<port id="1" precision="FP32" names="2104">
					<dim>58</dim>
					<dim>58</dim>
					<dim>1</dim>
					<dim>1</dim>
				</port>
			</output>
		</layer>
		<layer id="47" name="Convolution_669" type="Convolution" version="opset1">
			<data strides="1, 1" dilations="1, 1" pads_begin="0, 0" pads_end="0, 0" auto_pad="explicit"/>
			<rt_info>
				<attribute name="fused_names" version="0" value="Convolution_669"/>
			</rt_info>
			<input>
				<port id="0" precision="FP32">
					<dim>1</dim>
					<dim>58</dim>
					<dim>40</dim>
					<dim>40</dim>
				</port>
				<port id="1" precision="FP32">
					<dim>58</dim>
					<dim>58</dim>
					<dim>1</dim>
					<dim>1</dim>
				</port>
			</input>
			<output>
				<port id="2" precision="FP32">
					<dim>1</dim>
					<dim>58</dim>
					<dim>40</dim>
					<dim>40</dim>
				</port>
			</output>
		</layer>
		<layer id="48" name="Reshape_689_compressed" type="Const" version="opset1">
			<data element_type="f16" shape="1, 58, 1, 1" offset="41114" size="116"/>
			<output>
				<port id="0" precision="FP16">
					<dim>1</dim>
					<dim>58</dim>
					<dim>1</dim>
					<dim>1</dim>
				</port>
			</output>
		</layer>
		<layer id="49" name="Reshape_689" type="Convert" version="opset1">
			<data destination_type="f32"/>
			<rt_info>
				<attribute name="decompression" version="0"/>
			</rt_info>
			<input>
				<port id="0" precision="FP16">
					<dim>1</dim>
					<dim>58</dim>
					<dim>1</dim>
					<dim>1</dim>
				</port>
			</input>
			<output>
				<port id="1" precision="FP32">
					<dim>1</dim>
					<dim>58</dim>
					<dim>1</dim>
					<dim>1</dim>
				</port>
			</output>
		</layer>
		<layer id="50" name="2103" type="Add" version="opset1">
			<data auto_broadcast="numpy"/>
			<rt_info>
				<attribute name="fused_names" version="0" value="2103, Concat_688, Constant_672, Reshape_689"/>
			</rt_info>
			<input>
				<port id="0" precision="FP32">
					<dim>1</dim>
					<dim>58</dim>
					<dim>40</dim>
					<dim>40</dim>
				</port>
				<port id="1" precision="FP32">
					<dim>1</dim>
					<dim>58</dim>
					<dim>1</dim>
					<dim>1</dim>
				</port>
			</input>
			<output>
				<port id="2" precision="FP32" names="2103">
					<dim>1</dim>
					<dim>58</dim>
					<dim>40</dim>
					<dim>40</dim>
				</port>
			</output>
		</layer>
		<layer id="51" name="Constant_717_compressed" type="Const" version="opset1">
			<data element_type="f16" shape="1" offset="26944" size="2"/>
			<output>
				<port id="0" precision="FP16">
					<dim>1</dim>
				</port>
			</output>
		</layer>
		<layer id="52" name="Constant_717" type="Convert" version="opset1">
			<data destination_type="f32"/>
			<rt_info>
				<attribute name="decompression" version="0"/>
				<attribute name="fused_names" version="0" value="Constant_717"/>
			</rt_info>
			<input>
				<port id="0" precision="FP16">
					<dim>1</dim>
				</port>
			</input>
			<output>
				<port id="1" precision="FP32">
					<dim>1</dim>
				</port>
			</output>
		</layer>
		<layer id="53" name="904" type="PReLU" version="opset1">
			<rt_info>
				<attribute name="fused_names" version="0" value="904"/>
			</rt_info>
			<input>
				<port id="0" precision="FP32">
					<dim>1</dim>
					<dim>58</dim>
					<dim>40</dim>
					<dim>40</dim>
				</port>
				<port id="1" precision="FP32">
					<dim>1</dim>
				</port>
			</input>
			<output>
				<port id="2" precision="FP32" names="904">
					<dim>1</dim>
					<dim>58</dim>
					<dim>40</dim>
					<dim>40</dim>
				</port>
			</output>
		</layer>
		<layer id="54" name="905" type="Concat" version="opset1">
			<data axis="1"/>
			<rt_info>
				<attribute name="fused_names" version="0" value="905"/>
			</rt_info>
			<input>
				<port id="0" precision="FP32">
					<dim>1</dim>
					<dim>58</dim>
					<dim>40</dim>
					<dim>40</dim>
				</port>
				<port id="1" precision="FP32">
					<dim>1</dim>
					<dim>58</dim>
					<dim>40</dim>
					<dim>40</dim>
				</port>
			</input>
			<output>
				<port id="2" precision="FP32" names="905">
					<dim>1</dim>
					<dim>116</dim>
					<dim>40</dim>
					<dim>40</dim>
				</port>
			</output>
		</layer>
		<layer id="55" name="906" type="Const" version="opset1">
			<data element_type="i64" shape="5" offset="41230" size="40"/>
			<rt_info>
				<attribute name="fused_names" version="0" value="906"/>
			</rt_info>
			<output>
				<port id="0" precision="I64" names="906">
					<dim>5</dim>
				</port>
			</output>
		</layer>
		<layer id="56" name="907" type="Reshape" version="opset1">
			<data special_zero="true"/>
			<rt_info>
				<attribute name="fused_names" version="0" value="907"/>
			</rt_info>
			<input>
				<port id="0" precision="FP32">
					<dim>1</dim>
					<dim>116</dim>
					<dim>40</dim>
					<dim>40</dim>
				</port>
				<port id="1" precision="I64">
					<dim>5</dim>
				</port>
			</input>
			<output>
				<port id="2" precision="FP32" names="907">
					<dim>1</dim>
					<dim>2</dim>
					<dim>58</dim>
					<dim>40</dim>
					<dim>40</dim>
				</port>
			</output>
		</layer>
		<layer id="57" name="Constant_726" type="Const" version="opset1">
			<data element_type="i64" shape="5" offset="41270" size="40"/>
			<rt_info>
				<attribute name="fused_names" version="0" value="Constant_726"/>
			</rt_info>
			<output>
				<port id="0" precision="I64">
					<dim>5</dim>
				</port>
			</output>
		</layer>
		<layer id="58" name="908" type="Transpose" version="opset1">
			<rt_info>
				<attribute name="fused_names" version="0" value="908"/>
			</rt_info>
			<input>
				<port id="0" precision="FP32">
					<dim>1</dim>
					<dim>2</dim>
					<dim>58</dim>
					<dim>40</dim>
					<dim>40</dim>
				</port>
				<port id="1" precision="I64">
					<dim>5</dim>
				</port>
			</input>
			<output>
				<port id="2" precision="FP32" names="908">
					<dim>1</dim>
					<dim>58</dim>
					<dim>2</dim>
					<dim>40</dim>
					<dim>40</dim>
				</port>
			</output>
		</layer>
		<layer id="59" name="909" type="Const" version="opset1">
			<data element_type="i64" shape="4" offset="41310" size="32"/>
			<rt_info>
				<attribute name="fused_names" version="0" value="909"/>
			</rt_info>
			<output>
				<port id="0" precision="I64" names="909">
					<dim>4</dim>
				</port>
			</output>
		</layer>
		<layer id="60" name="910" type="Reshape" version="opset1">
			<data special_zero="true"/>
			<rt_info>
				<attribute name="fused_names" version="0" value="910"/>
			</rt_info>
			<input>
				<port id="0" precision="FP32">
					<dim>1</dim>
					<dim>58</dim>
					<dim>2</dim>
					<dim>40</dim>
					<dim>40</dim>
				</port>
				<port id="1" precision="I64">
					<dim>4</dim>
				</port>
			</input>
			<output>
				<port id="2" precision="FP32" names="910">
					<dim>1</dim>
					<dim>116</dim>
					<dim>40</dim>
					<dim>40</dim>
				</port>
			</output>
		</layer>
		<layer id="61" name="Constant_28266" type="Const" version="opset1">
			<data element_type="i64" shape="2" offset="41342" size="16"/>
			<rt_info>
				<attribute name="fused_names" version="0" value="921, Broadcast_736, Constant_734"/>
			</rt_info>
			<output>
				<port id="0" precision="I64">
					<dim>2</dim>
				</port>
			</output>
		</layer>
		<layer id="62" name="Constant_28269" type="Const" version="opset1">
			<data element_type="i64" shape="2" offset="41358" size="16"/>
			<rt_info>
				<attribute name="fused_names" version="0" value="921, Broadcast_736, Constant_734"/>
			</rt_info>
			<output>
				<port id="0" precision="I64">
					<dim>2</dim>
				</port>
			</output>
		</layer>
		<layer id="63" name="Constant_28272" type="Const" version="opset1">
			<data element_type="i64" shape="2" offset="41374" size="16"/>
			<rt_info>
				<attribute name="fused_names" version="0" value="921, Broadcast_736, Constant_734"/>
			</rt_info>
			<output>
				<port id="0" precision="I64">
					<dim>2</dim>
				</port>
			</output>
		</layer>
		<layer id="64" name="921" type="StridedSlice" version="opset1">
			<data begin_mask="1, 0" end_mask="1, 0" new_axis_mask="" shrink_axis_mask="" ellipsis_mask=""/>
			<rt_info>
				<attribute name="fused_names" version="0" value="921, Broadcast_736, Constant_734"/>
			</rt_info>
			<input>
				<port id="0" precision="FP32">
					<dim>1</dim>
					<dim>116</dim>
					<dim>40</dim>
					<dim>40</dim>
				</port>
				<port id="1" precision="I64">
					<dim>2</dim>
				</port>
				<port id="2" precision="I64">
					<dim>2</dim>
				</port>
				<port id="3" precision="I64">
					<dim>2</dim>
				</port>
			</input>
			<output>
				<port id="4" precision="FP32" names="921">
					<dim>1</dim>
					<dim>58</dim>
					<dim>40</dim>
					<dim>40</dim>
				</port>
			</output>
		</layer>
		<layer id="65" name="Constant_28278" type="Const" version="opset1">
			<data element_type="i64" shape="2" offset="41358" size="16"/>
			<rt_info>
				<attribute name="fused_names" version="0" value="924, Broadcast_755, Constant_753"/>
			</rt_info>
			<output>
				<port id="0" precision="I64">
					<dim>2</dim>
				</port>
			</output>
		</layer>
		<layer id="66" name="Constant_28281" type="Const" version="opset1">
			<data element_type="i64" shape="2" offset="41390" size="16"/>
			<rt_info>
				<attribute name="fused_names" version="0" value="924, Broadcast_755, Constant_753"/>
			</rt_info>
			<output>
				<port id="0" precision="I64">
					<dim>2</dim>
				</port>
			</output>
		</layer>
		<layer id="67" name="Constant_28284" type="Const" version="opset1">
			<data element_type="i64" shape="2" offset="41374" size="16"/>
			<rt_info>
				<attribute name="fused_names" version="0" value="924, Broadcast_755, Constant_753"/>
			</rt_info>
			<output>
				<port id="0" precision="I64">
					<dim>2</dim>
				</port>
			</output>
		</layer>
		<layer id="68" name="924" type="StridedSlice" version="opset1">
			<data begin_mask="1, 0" end_mask="1, 0" new_axis_mask="" shrink_axis_mask="" ellipsis_mask=""/>
			<rt_info>
				<attribute name="fused_names" version="0" value="924, Broadcast_755, Constant_753"/>
			</rt_info>
			<input>
				<port id="0" precision="FP32">
					<dim>1</dim>
					<dim>116</dim>
					<dim>40</dim>
					<dim>40</dim>
				</port>
				<port id="1" precision="I64">
					<dim>2</dim>
				</port>
				<port id="2" precision="I64">
					<dim>2</dim>
				</port>
				<port id="3" precision="I64">
					<dim>2</dim>
				</port>
			</input>
			<output>
				<port id="4" precision="FP32" names="924">
					<dim>1</dim>
					<dim>58</dim>
					<dim>40</dim>
					<dim>40</dim>
				</port>
			</output>
		</layer>
		<layer id="69" name="2107_compressed" type="Const" version="opset1">
			<data element_type="f16" shape="58, 58, 1, 1" offset="41406" size="6728"/>
			<output>
				<port id="0" precision="FP16">
					<dim>58</dim>
					<dim>58</dim>
					<dim>1</dim>
					<dim>1</dim>
				</port>
			</output>
		</layer>
		<layer id="70" name="2107" type="Convert" version="opset1">
			<data destination_type="f32"/>
			<rt_info>
				<attribute name="decompression" version="0"/>
				<attribute name="fused_names" version="0" value="2107"/>
			</rt_info>
			<input>
				<port id="0" precision="FP16">
					<dim>58</dim>
					<dim>58</dim>
					<dim>1</dim>
					<dim>1</dim>
				</port>
			</input>
			<output>
				<port id="1" precision="FP32" names="2107">
					<dim>58</dim>
					<dim>58</dim>
					<dim>1</dim>
					<dim>1</dim>
				</port>
			</output>
		</layer>
		<layer id="71" name="Convolution_772" type="Convolution" version="opset1">
			<data strides="1, 1" dilations="1, 1" pads_begin="0, 0" pads_end="0, 0" auto_pad="explicit"/>
			<rt_info>
				<attribute name="fused_names" version="0" value="Convolution_772"/>
			</rt_info>
			<input>
				<port id="0" precision="FP32">
					<dim>1</dim>
					<dim>58</dim>
					<dim>40</dim>
					<dim>40</dim>
				</port>
				<port id="1" precision="FP32">
					<dim>58</dim>
					<dim>58</dim>
					<dim>1</dim>
					<dim>1</dim>
				</port>
			</input>
			<output>
				<port id="2" precision="FP32">
					<dim>1</dim>
					<dim>58</dim>
					<dim>40</dim>
					<dim>40</dim>
				</port>
			</output>
		</layer>
		<layer id="72" name="Reshape_792_compressed" type="Const" version="opset1">
			<data element_type="f16" shape="1, 58, 1, 1" offset="48134" size="116"/>
			<output>
				<port id="0" precision="FP16">
					<dim>1</dim>
					<dim>58</dim>
					<dim>1</dim>
					<dim>1</dim>
				</port>
			</output>
		</layer>
		<layer id="73" name="Reshape_792" type="Convert" version="opset1">
			<data destination_type="f32"/>
			<rt_info>
				<attribute name="decompression" version="0"/>
			</rt_info>
			<input>
				<port id="0" precision="FP16">
					<dim>1</dim>
					<dim>58</dim>
					<dim>1</dim>
					<dim>1</dim>
				</port>
			</input>
			<output>
				<port id="1" precision="FP32">
					<dim>1</dim>
					<dim>58</dim>
					<dim>1</dim>
					<dim>1</dim>
				</port>
			</output>
		</layer>
		<layer id="74" name="2106" type="Add" version="opset1">
			<data auto_broadcast="numpy"/>
			<rt_info>
				<attribute name="fused_names" version="0" value="2106, Concat_791, Constant_775, Reshape_792"/>
			</rt_info>
			<input>
				<port id="0" precision="FP32">
					<dim>1</dim>
					<dim>58</dim>
					<dim>40</dim>
					<dim>40</dim>
				</port>
				<port id="1" precision="FP32">
					<dim>1</dim>
					<dim>58</dim>
					<dim>1</dim>
					<dim>1</dim>
				</port>
			</input>
			<output>
				<port id="2" precision="FP32" names="2106">
					<dim>1</dim>
					<dim>58</dim>
					<dim>40</dim>
					<dim>40</dim>
				</port>
			</output>
		</layer>
		<layer id="75" name="Constant_820_compressed" type="Const" version="opset1">
			<data element_type="f16" shape="1" offset="26944" size="2"/>
			<output>
				<port id="0" precision="FP16">
					<dim>1</dim>
				</port>
			</output>
		</layer>
		<layer id="76" name="Constant_820" type="Convert" version="opset1">
			<data destination_type="f32"/>
			<rt_info>
				<attribute name="decompression" version="0"/>
				<attribute name="fused_names" version="0" value="Constant_820"/>
			</rt_info>
			<input>
				<port id="0" precision="FP16">
					<dim>1</dim>
				</port>
			</input>
			<output>
				<port id="1" precision="FP32">
					<dim>1</dim>
				</port>
			</output>
		</layer>
		<layer id="77" name="927" type="PReLU" version="opset1">
			<rt_info>
				<attribute name="fused_names" version="0" value="927"/>
			</rt_info>
			<input>
				<port id="0" precision="FP32">
					<dim>1</dim>
					<dim>58</dim>
					<dim>40</dim>
					<dim>40</dim>
				</port>
				<port id="1" precision="FP32">
					<dim>1</dim>
				</port>
			</input>
			<output>
				<port id="2" precision="FP32" names="927">
					<dim>1</dim>
					<dim>58</dim>
					<dim>40</dim>
					<dim>40</dim>
				</port>
			</output>
		</layer>
		<layer id="78" name="Reshape_829_compressed" type="Const" version="opset1">
			<data element_type="f16" shape="58, 1, 1, 3, 3" offset="48250" size="1044"/>
			<output>
				<port id="0" precision="FP16">
					<dim>58</dim>
					<dim>1</dim>
					<dim>1</dim>
					<dim>3</dim>
					<dim>3</dim>
				</port>
			</output>
		</layer>
		<layer id="79" name="Reshape_829" type="Convert" version="opset1">
			<data destination_type="f32"/>
			<rt_info>
				<attribute name="decompression" version="0"/>
			</rt_info>
			<input>
				<port id="0" precision="FP16">
					<dim>58</dim>
					<dim>1</dim>
					<dim>1</dim>
					<dim>3</dim>
					<dim>3</dim>
				</port>
			</input>
			<output>
				<port id="1" precision="FP32">
					<dim>58</dim>
					<dim>1</dim>
					<dim>1</dim>
					<dim>3</dim>
					<dim>3</dim>
				</port>
			</output>
		</layer>
		<layer id="80" name="GroupConvolution_895" type="GroupConvolution" version="opset1">
			<data strides="1, 1" pads_begin="1, 1" pads_end="1, 1" dilations="1, 1" auto_pad="explicit"/>
			<rt_info>
				<attribute name="fused_names" version="0" value="GroupConvolution_895, Reshape_829"/>
			</rt_info>
			<input>
				<port id="0" precision="FP32">
					<dim>1</dim>
					<dim>58</dim>
					<dim>40</dim>
					<dim>40</dim>
				</port>
				<port id="1" precision="FP32">
					<dim>58</dim>
					<dim>1</dim>
					<dim>1</dim>
					<dim>3</dim>
					<dim>3</dim>
				</port>
			</input>
			<output>
				<port id="2" precision="FP32">
					<dim>1</dim>
					<dim>58</dim>
					<dim>40</dim>
					<dim>40</dim>
				</port>
			</output>
		</layer>
		<layer id="81" name="Reshape_915_compressed" type="Const" version="opset1">
			<data element_type="f16" shape="1, 58, 1, 1" offset="49294" size="116"/>
			<output>
				<port id="0" precision="FP16">
					<dim>1</dim>
					<dim>58</dim>
					<dim>1</dim>
					<dim>1</dim>
				</port>
			</output>
		</layer>
		<layer id="82" name="Reshape_915" type="Convert" version="opset1">
			<data destination_type="f32"/>
			<rt_info>
				<attribute name="decompression" version="0"/>
			</rt_info>
			<input>
				<port id="0" precision="FP16">
					<dim>1</dim>
					<dim>58</dim>
					<dim>1</dim>
					<dim>1</dim>
				</port>
			</input>
			<output>
				<port id="1" precision="FP32">
					<dim>1</dim>
					<dim>58</dim>
					<dim>1</dim>
					<dim>1</dim>
				</port>
			</output>
		</layer>
		<layer id="83" name="2109" type="Add" version="opset1">
			<data auto_broadcast="numpy"/>
			<rt_info>
				<attribute name="fused_names" version="0" value="2109, Concat_914, Constant_898, Reshape_915"/>
			</rt_info>
			<input>
				<port id="0" precision="FP32">
					<dim>1</dim>
					<dim>58</dim>
					<dim>40</dim>
					<dim>40</dim>
				</port>
				<port id="1" precision="FP32">
					<dim>1</dim>
					<dim>58</dim>
					<dim>1</dim>
					<dim>1</dim>
				</port>
			</input>
			<output>
				<port id="2" precision="FP32" names="2109">
					<dim>1</dim>
					<dim>58</dim>
					<dim>40</dim>
					<dim>40</dim>
				</port>
			</output>
		</layer>
		<layer id="84" name="2113_compressed" type="Const" version="opset1">
			<data element_type="f16" shape="58, 58, 1, 1" offset="49410" size="6728"/>
			<output>
				<port id="0" precision="FP16">
					<dim>58</dim>
					<dim>58</dim>
					<dim>1</dim>
					<dim>1</dim>
				</port>
			</output>
		</layer>
		<layer id="85" name="2113" type="Convert" version="opset1">
			<data destination_type="f32"/>
			<rt_info>
				<attribute name="decompression" version="0"/>
				<attribute name="fused_names" version="0" value="2113"/>
			</rt_info>
			<input>
				<port id="0" precision="FP16">
					<dim>58</dim>
					<dim>58</dim>
					<dim>1</dim>
					<dim>1</dim>
				</port>
			</input>
			<output>
				<port id="1" precision="FP32" names="2113">
					<dim>58</dim>
					<dim>58</dim>
					<dim>1</dim>
					<dim>1</dim>
				</port>
			</output>
		</layer>
		<layer id="86" name="Convolution_943" type="Convolution" version="opset1">
			<data strides="1, 1" dilations="1, 1" pads_begin="0, 0" pads_end="0, 0" auto_pad="explicit"/>
			<rt_info>
				<attribute name="fused_names" version="0" value="Convolution_943"/>
			</rt_info>
			<input>
				<port id="0" precision="FP32">
					<dim>1</dim>
					<dim>58</dim>
					<dim>40</dim>
					<dim>40</dim>
				</port>
				<port id="1" precision="FP32">
					<dim>58</dim>
					<dim>58</dim>
					<dim>1</dim>
					<dim>1</dim>
				</port>
			</input>
			<output>
				<port id="2" precision="FP32">
					<dim>1</dim>
					<dim>58</dim>
					<dim>40</dim>
					<dim>40</dim>
				</port>
			</output>
		</layer>
		<layer id="87" name="Reshape_963_compressed" type="Const" version="opset1">
			<data element_type="f16" shape="1, 58, 1, 1" offset="56138" size="116"/>
			<output>
				<port id="0" precision="FP16">
					<dim>1</dim>
					<dim>58</dim>
					<dim>1</dim>
					<dim>1</dim>
				</port>
			</output>
		</layer>
		<layer id="88" name="Reshape_963" type="Convert" version="opset1">
			<data destination_type="f32"/>
			<rt_info>
				<attribute name="decompression" version="0"/>
			</rt_info>
			<input>
				<port id="0" precision="FP16">
					<dim>1</dim>
					<dim>58</dim>
					<dim>1</dim>
					<dim>1</dim>
				</port>
			</input>
			<output>
				<port id="1" precision="FP32">
					<dim>1</dim>
					<dim>58</dim>
					<dim>1</dim>
					<dim>1</dim>
				</port>
			</output>
		</layer>
		<layer id="89" name="2112" type="Add" version="opset1">
			<data auto_broadcast="numpy"/>
			<rt_info>
				<attribute name="fused_names" version="0" value="2112, Concat_962, Constant_946, Reshape_963"/>
			</rt_info>
			<input>
				<port id="0" precision="FP32">
					<dim>1</dim>
					<dim>58</dim>
					<dim>40</dim>
					<dim>40</dim>
				</port>
				<port id="1" precision="FP32">
					<dim>1</dim>
					<dim>58</dim>
					<dim>1</dim>
					<dim>1</dim>
				</port>
			</input>
			<output>
				<port id="2" precision="FP32" names="2112">
					<dim>1</dim>
					<dim>58</dim>
					<dim>40</dim>
					<dim>40</dim>
				</port>
			</output>
		</layer>
		<layer id="90" name="Constant_991_compressed" type="Const" version="opset1">
			<data element_type="f16" shape="1" offset="26944" size="2"/>
			<output>
				<port id="0" precision="FP16">
					<dim>1</dim>
				</port>
			</output>
		</layer>
		<layer id="91" name="Constant_991" type="Convert" version="opset1">
			<data destination_type="f32"/>
			<rt_info>
				<attribute name="decompression" version="0"/>
				<attribute name="fused_names" version="0" value="Constant_991"/>
			</rt_info>
			<input>
				<port id="0" precision="FP16">
					<dim>1</dim>
				</port>
			</input>
			<output>
				<port id="1" precision="FP32">
					<dim>1</dim>
				</port>
			</output>
		</layer>
		<layer id="92" name="932" type="PReLU" version="opset1">
			<rt_info>
				<attribute name="fused_names" version="0" value="932"/>
			</rt_info>
			<input>
				<port id="0" precision="FP32">
					<dim>1</dim>
					<dim>58</dim>
					<dim>40</dim>
					<dim>40</dim>
				</port>
				<port id="1" precision="FP32">
					<dim>1</dim>
				</port>
			</input>
			<output>
				<port id="2" precision="FP32" names="932">
					<dim>1</dim>
					<dim>58</dim>
					<dim>40</dim>
					<dim>40</dim>
				</port>
			</output>
		</layer>
		<layer id="93" name="933" type="Concat" version="opset1">
			<data axis="1"/>
			<rt_info>
				<attribute name="fused_names" version="0" value="933"/>
			</rt_info>
			<input>
				<port id="0" precision="FP32">
					<dim>1</dim>
					<dim>58</dim>
					<dim>40</dim>
					<dim>40</dim>
				</port>
				<port id="1" precision="FP32">
					<dim>1</dim>
					<dim>58</dim>
					<dim>40</dim>
					<dim>40</dim>
				</port>
			</input>
			<output>
				<port id="2" precision="FP32" names="933">
					<dim>1</dim>
					<dim>116</dim>
					<dim>40</dim>
					<dim>40</dim>
				</port>
			</output>
		</layer>
		<layer id="94" name="935" type="Reshape" version="opset1">
			<data special_zero="true"/>
			<rt_info>
				<attribute name="fused_names" version="0" value="935"/>
			</rt_info>
			<input>
				<port id="0" precision="FP32">
					<dim>1</dim>
					<dim>116</dim>
					<dim>40</dim>
					<dim>40</dim>
				</port>
				<port id="1" precision="I64">
					<dim>5</dim>
				</port>
			</input>
			<output>
				<port id="2" precision="FP32" names="935">
					<dim>1</dim>
					<dim>2</dim>
					<dim>58</dim>
					<dim>40</dim>
					<dim>40</dim>
				</port>
			</output>
		</layer>
		<layer id="95" name="Constant_997" type="Const" version="opset1">
			<data element_type="i64" shape="5" offset="41270" size="40"/>
			<rt_info>
				<attribute name="fused_names" version="0" value="Constant_997"/>
			</rt_info>
			<output>
				<port id="0" precision="I64">
					<dim>5</dim>
				</port>
			</output>
		</layer>
		<layer id="96" name="936" type="Transpose" version="opset1">
			<rt_info>
				<attribute name="fused_names" version="0" value="936"/>
			</rt_info>
			<input>
				<port id="0" precision="FP32">
					<dim>1</dim>
					<dim>2</dim>
					<dim>58</dim>
					<dim>40</dim>
					<dim>40</dim>
				</port>
				<port id="1" precision="I64">
					<dim>5</dim>
				</port>
			</input>
			<output>
				<port id="2" precision="FP32" names="936">
					<dim>1</dim>
					<dim>58</dim>
					<dim>2</dim>
					<dim>40</dim>
					<dim>40</dim>
				</port>
			</output>
		</layer>
		<layer id="97" name="938" type="Reshape" version="opset1">
			<data special_zero="true"/>
			<rt_info>
				<attribute name="fused_names" version="0" value="938"/>
			</rt_info>
			<input>
				<port id="0" precision="FP32">
					<dim>1</dim>
					<dim>58</dim>
					<dim>2</dim>
					<dim>40</dim>
					<dim>40</dim>
				</port>
				<port id="1" precision="I64">
					<dim>4</dim>
				</port>
			</input>
			<output>
				<port id="2" precision="FP32" names="938">
					<dim>1</dim>
					<dim>116</dim>
					<dim>40</dim>
					<dim>40</dim>
				</port>
			</output>
		</layer>
		<layer id="98" name="Constant_28290" type="Const" version="opset1">
			<data element_type="i64" shape="2" offset="41342" size="16"/>
			<rt_info>
				<attribute name="fused_names" version="0" value="949, Broadcast_1004, Constant_1002"/>
			</rt_info>
			<output>
				<port id="0" precision="I64">
					<dim>2</dim>
				</port>
			</output>
		</layer>
		<layer id="99" name="Constant_28293" type="Const" version="opset1">
			<data element_type="i64" shape="2" offset="41358" size="16"/>
			<rt_info>
				<attribute name="fused_names" version="0" value="949, Broadcast_1004, Constant_1002"/>
			</rt_info>
			<output>
				<port id="0" precision="I64">
					<dim>2</dim>
				</port>
			</output>
		</layer>
		<layer id="100" name="Constant_28296" type="Const" version="opset1">
			<data element_type="i64" shape="2" offset="41374" size="16"/>
			<rt_info>
				<attribute name="fused_names" version="0" value="949, Broadcast_1004, Constant_1002"/>
			</rt_info>
			<output>
				<port id="0" precision="I64">
					<dim>2</dim>
				</port>
			</output>
		</layer>
		<layer id="101" name="949" type="StridedSlice" version="opset1">
			<data begin_mask="1, 0" end_mask="1, 0" new_axis_mask="" shrink_axis_mask="" ellipsis_mask=""/>
			<rt_info>
				<attribute name="fused_names" version="0" value="949, Broadcast_1004, Constant_1002"/>
			</rt_info>
			<input>
				<port id="0" precision="FP32">
					<dim>1</dim>
					<dim>116</dim>
					<dim>40</dim>
					<dim>40</dim>
				</port>
				<port id="1" precision="I64">
					<dim>2</dim>
				</port>
				<port id="2" precision="I64">
					<dim>2</dim>
				</port>
				<port id="3" precision="I64">
					<dim>2</dim>
				</port>
			</input>
			<output>
				<port id="4" precision="FP32" names="949">
					<dim>1</dim>
					<dim>58</dim>
					<dim>40</dim>
					<dim>40</dim>
				</port>
			</output>
		</layer>
		<layer id="102" name="Constant_28302" type="Const" version="opset1">
			<data element_type="i64" shape="2" offset="41358" size="16"/>
			<rt_info>
				<attribute name="fused_names" version="0" value="952, Broadcast_1023, Constant_1021"/>
			</rt_info>
			<output>
				<port id="0" precision="I64">
					<dim>2</dim>
				</port>
			</output>
		</layer>
		<layer id="103" name="Constant_28305" type="Const" version="opset1">
			<data element_type="i64" shape="2" offset="41390" size="16"/>
			<rt_info>
				<attribute name="fused_names" version="0" value="952, Broadcast_1023, Constant_1021"/>
			</rt_info>
			<output>
				<port id="0" precision="I64">
					<dim>2</dim>
				</port>
			</output>
		</layer>
		<layer id="104" name="Constant_28308" type="Const" version="opset1">
			<data element_type="i64" shape="2" offset="41374" size="16"/>
			<rt_info>
				<attribute name="fused_names" version="0" value="952, Broadcast_1023, Constant_1021"/>
			</rt_info>
			<output>
				<port id="0" precision="I64">
					<dim>2</dim>
				</port>
			</output>
		</layer>
		<layer id="105" name="952" type="StridedSlice" version="opset1">
			<data begin_mask="1, 0" end_mask="1, 0" new_axis_mask="" shrink_axis_mask="" ellipsis_mask=""/>
			<rt_info>
				<attribute name="fused_names" version="0" value="952, Broadcast_1023, Constant_1021"/>
			</rt_info>
			<input>
				<port id="0" precision="FP32">
					<dim>1</dim>
					<dim>116</dim>
					<dim>40</dim>
					<dim>40</dim>
				</port>
				<port id="1" precision="I64">
					<dim>2</dim>
				</port>
				<port id="2" precision="I64">
					<dim>2</dim>
				</port>
				<port id="3" precision="I64">
					<dim>2</dim>
				</port>
			</input>
			<output>
				<port id="4" precision="FP32" names="952">
					<dim>1</dim>
					<dim>58</dim>
					<dim>40</dim>
					<dim>40</dim>
				</port>
			</output>
		</layer>
		<layer id="106" name="2116_compressed" type="Const" version="opset1">
			<data element_type="f16" shape="58, 58, 1, 1" offset="56254" size="6728"/>
			<output>
				<port id="0" precision="FP16">
					<dim>58</dim>
					<dim>58</dim>
					<dim>1</dim>
					<dim>1</dim>
				</port>
			</output>
		</layer>
		<layer id="107" name="2116" type="Convert" version="opset1">
			<data destination_type="f32"/>
			<rt_info>
				<attribute name="decompression" version="0"/>
				<attribute name="fused_names" version="0" value="2116"/>
			</rt_info>
			<input>
				<port id="0" precision="FP16">
					<dim>58</dim>
					<dim>58</dim>
					<dim>1</dim>
					<dim>1</dim>
				</port>
			</input>
			<output>
				<port id="1" precision="FP32" names="2116">
					<dim>58</dim>
					<dim>58</dim>
					<dim>1</dim>
					<dim>1</dim>
				</port>
			</output>
		</layer>
		<layer id="108" name="Convolution_1040" type="Convolution" version="opset1">
			<data strides="1, 1" dilations="1, 1" pads_begin="0, 0" pads_end="0, 0" auto_pad="explicit"/>
			<rt_info>
				<attribute name="fused_names" version="0" value="Convolution_1040"/>
			</rt_info>
			<input>
				<port id="0" precision="FP32">
					<dim>1</dim>
					<dim>58</dim>
					<dim>40</dim>
					<dim>40</dim>
				</port>
				<port id="1" precision="FP32">
					<dim>58</dim>
					<dim>58</dim>
					<dim>1</dim>
					<dim>1</dim>
				</port>
			</input>
			<output>
				<port id="2" precision="FP32">
					<dim>1</dim>
					<dim>58</dim>
					<dim>40</dim>
					<dim>40</dim>
				</port>
			</output>
		</layer>
		<layer id="109" name="Reshape_1060_compressed" type="Const" version="opset1">
			<data element_type="f16" shape="1, 58, 1, 1" offset="62982" size="116"/>
			<output>
				<port id="0" precision="FP16">
					<dim>1</dim>
					<dim>58</dim>
					<dim>1</dim>
					<dim>1</dim>
				</port>
			</output>
		</layer>
		<layer id="110" name="Reshape_1060" type="Convert" version="opset1">
			<data destination_type="f32"/>
			<rt_info>
				<attribute name="decompression" version="0"/>
			</rt_info>
			<input>
				<port id="0" precision="FP16">
					<dim>1</dim>
					<dim>58</dim>
					<dim>1</dim>
					<dim>1</dim>
				</port>
			</input>
			<output>
				<port id="1" precision="FP32">
					<dim>1</dim>
					<dim>58</dim>
					<dim>1</dim>
					<dim>1</dim>
				</port>
			</output>
		</layer>
		<layer id="111" name="2115" type="Add" version="opset1">
			<data auto_broadcast="numpy"/>
			<rt_info>
				<attribute name="fused_names" version="0" value="2115, Concat_1059, Constant_1043, Reshape_1060"/>
			</rt_info>
			<input>
				<port id="0" precision="FP32">
					<dim>1</dim>
					<dim>58</dim>
					<dim>40</dim>
					<dim>40</dim>
				</port>
				<port id="1" precision="FP32">
					<dim>1</dim>
					<dim>58</dim>
					<dim>1</dim>
					<dim>1</dim>
				</port>
			</input>
			<output>
				<port id="2" precision="FP32" names="2115">
					<dim>1</dim>
					<dim>58</dim>
					<dim>40</dim>
					<dim>40</dim>
				</port>
			</output>
		</layer>
		<layer id="112" name="Constant_1088_compressed" type="Const" version="opset1">
			<data element_type="f16" shape="1" offset="26944" size="2"/>
			<output>
				<port id="0" precision="FP16">
					<dim>1</dim>
				</port>
			</output>
		</layer>
		<layer id="113" name="Constant_1088" type="Convert" version="opset1">
			<data destination_type="f32"/>
			<rt_info>
				<attribute name="decompression" version="0"/>
				<attribute name="fused_names" version="0" value="Constant_1088"/>
			</rt_info>
			<input>
				<port id="0" precision="FP16">
					<dim>1</dim>
				</port>
			</input>
			<output>
				<port id="1" precision="FP32">
					<dim>1</dim>
				</port>
			</output>
		</layer>
		<layer id="114" name="955" type="PReLU" version="opset1">
			<rt_info>
				<attribute name="fused_names" version="0" value="955"/>
			</rt_info>
			<input>
				<port id="0" precision="FP32">
					<dim>1</dim>
					<dim>58</dim>
					<dim>40</dim>
					<dim>40</dim>
				</port>
				<port id="1" precision="FP32">
					<dim>1</dim>
				</port>
			</input>
			<output>
				<port id="2" precision="FP32" names="955">
					<dim>1</dim>
					<dim>58</dim>
					<dim>40</dim>
					<dim>40</dim>
				</port>
			</output>
		</layer>
		<layer id="115" name="Reshape_1097_compressed" type="Const" version="opset1">
			<data element_type="f16" shape="58, 1, 1, 3, 3" offset="63098" size="1044"/>
			<output>
				<port id="0" precision="FP16">
					<dim>58</dim>
					<dim>1</dim>
					<dim>1</dim>
					<dim>3</dim>
					<dim>3</dim>
				</port>
			</output>
		</layer>
		<layer id="116" name="Reshape_1097" type="Convert" version="opset1">
			<data destination_type="f32"/>
			<rt_info>
				<attribute name="decompression" version="0"/>
			</rt_info>
			<input>
				<port id="0" precision="FP16">
					<dim>58</dim>
					<dim>1</dim>
					<dim>1</dim>
					<dim>3</dim>
					<dim>3</dim>
				</port>
			</input>
			<output>
				<port id="1" precision="FP32">
					<dim>58</dim>
					<dim>1</dim>
					<dim>1</dim>
					<dim>3</dim>
					<dim>3</dim>
				</port>
			</output>
		</layer>
		<layer id="117" name="GroupConvolution_1163" type="GroupConvolution" version="opset1">
			<data strides="1, 1" pads_begin="1, 1" pads_end="1, 1" dilations="1, 1" auto_pad="explicit"/>
			<rt_info>
				<attribute name="fused_names" version="0" value="GroupConvolution_1163, Reshape_1097"/>
			</rt_info>
			<input>
				<port id="0" precision="FP32">
					<dim>1</dim>
					<dim>58</dim>
					<dim>40</dim>
					<dim>40</dim>
				</port>
				<port id="1" precision="FP32">
					<dim>58</dim>
					<dim>1</dim>
					<dim>1</dim>
					<dim>3</dim>
					<dim>3</dim>
				</port>
			</input>
			<output>
				<port id="2" precision="FP32">
					<dim>1</dim>
					<dim>58</dim>
					<dim>40</dim>
					<dim>40</dim>
				</port>
			</output>
		</layer>
		<layer id="118" name="Reshape_1183_compressed" type="Const" version="opset1">
			<data element_type="f16" shape="1, 58, 1, 1" offset="64142" size="116"/>
			<output>
				<port id="0" precision="FP16">
					<dim>1</dim>
					<dim>58</dim>
					<dim>1</dim>
					<dim>1</dim>
				</port>
			</output>
		</layer>
		<layer id="119" name="Reshape_1183" type="Convert" version="opset1">
			<data destination_type="f32"/>
			<rt_info>
				<attribute name="decompression" version="0"/>
			</rt_info>
			<input>
				<port id="0" precision="FP16">
					<dim>1</dim>
					<dim>58</dim>
					<dim>1</dim>
					<dim>1</dim>
				</port>
			</input>
			<output>
				<port id="1" precision="FP32">
					<dim>1</dim>
					<dim>58</dim>
					<dim>1</dim>
					<dim>1</dim>
				</port>
			</output>
		</layer>
		<layer id="120" name="2118" type="Add" version="opset1">
			<data auto_broadcast="numpy"/>
			<rt_info>
				<attribute name="fused_names" version="0" value="2118, Concat_1182, Constant_1166, Reshape_1183"/>
			</rt_info>
			<input>
				<port id="0" precision="FP32">
					<dim>1</dim>
					<dim>58</dim>
					<dim>40</dim>
					<dim>40</dim>
				</port>
				<port id="1" precision="FP32">
					<dim>1</dim>
					<dim>58</dim>
					<dim>1</dim>
					<dim>1</dim>
				</port>
			</input>
			<output>
				<port id="2" precision="FP32" names="2118">
					<dim>1</dim>
					<dim>58</dim>
					<dim>40</dim>
					<dim>40</dim>
				</port>
			</output>
		</layer>
		<layer id="121" name="2122_compressed" type="Const" version="opset1">
			<data element_type="f16" shape="58, 58, 1, 1" offset="64258" size="6728"/>
			<output>
				<port id="0" precision="FP16">
					<dim>58</dim>
					<dim>58</dim>
					<dim>1</dim>
					<dim>1</dim>
				</port>
			</output>
		</layer>
		<layer id="122" name="2122" type="Convert" version="opset1">
			<data destination_type="f32"/>
			<rt_info>
				<attribute name="decompression" version="0"/>
				<attribute name="fused_names" version="0" value="2122"/>
			</rt_info>
			<input>
				<port id="0" precision="FP16">
					<dim>58</dim>
					<dim>58</dim>
					<dim>1</dim>
					<dim>1</dim>
				</port>
			</input>
			<output>
				<port id="1" precision="FP32" names="2122">
					<dim>58</dim>
					<dim>58</dim>
					<dim>1</dim>
					<dim>1</dim>
				</port>
			</output>
		</layer>
		<layer id="123" name="Convolution_1211" type="Convolution" version="opset1">
			<data strides="1, 1" dilations="1, 1" pads_begin="0, 0" pads_end="0, 0" auto_pad="explicit"/>
			<rt_info>
				<attribute name="fused_names" version="0" value="Convolution_1211"/>
			</rt_info>
			<input>
				<port id="0" precision="FP32">
					<dim>1</dim>
					<dim>58</dim>
					<dim>40</dim>
					<dim>40</dim>
				</port>
				<port id="1" precision="FP32">
					<dim>58</dim>
					<dim>58</dim>
					<dim>1</dim>
					<dim>1</dim>
				</port>
			</input>
			<output>
				<port id="2" precision="FP32">
					<dim>1</dim>
					<dim>58</dim>
					<dim>40</dim>
					<dim>40</dim>
				</port>
			</output>
		</layer>
		<layer id="124" name="Reshape_1231_compressed" type="Const" version="opset1">
			<data element_type="f16" shape="1, 58, 1, 1" offset="70986" size="116"/>
			<output>
				<port id="0" precision="FP16">
					<dim>1</dim>
					<dim>58</dim>
					<dim>1</dim>
					<dim>1</dim>
				</port>
			</output>
		</layer>
		<layer id="125" name="Reshape_1231" type="Convert" version="opset1">
			<data destination_type="f32"/>
			<rt_info>
				<attribute name="decompression" version="0"/>
			</rt_info>
			<input>
				<port id="0" precision="FP16">
					<dim>1</dim>
					<dim>58</dim>
					<dim>1</dim>
					<dim>1</dim>
				</port>
			</input>
			<output>
				<port id="1" precision="FP32">
					<dim>1</dim>
					<dim>58</dim>
					<dim>1</dim>
					<dim>1</dim>
				</port>
			</output>
		</layer>
		<layer id="126" name="2121" type="Add" version="opset1">
			<data auto_broadcast="numpy"/>
			<rt_info>
				<attribute name="fused_names" version="0" value="2121, Concat_1230, Constant_1214, Reshape_1231"/>
			</rt_info>
			<input>
				<port id="0" precision="FP32">
					<dim>1</dim>
					<dim>58</dim>
					<dim>40</dim>
					<dim>40</dim>
				</port>
				<port id="1" precision="FP32">
					<dim>1</dim>
					<dim>58</dim>
					<dim>1</dim>
					<dim>1</dim>
				</port>
			</input>
			<output>
				<port id="2" precision="FP32" names="2121">
					<dim>1</dim>
					<dim>58</dim>
					<dim>40</dim>
					<dim>40</dim>
				</port>
			</output>
		</layer>
		<layer id="127" name="Constant_1259_compressed" type="Const" version="opset1">
			<data element_type="f16" shape="1" offset="26944" size="2"/>
			<output>
				<port id="0" precision="FP16">
					<dim>1</dim>
				</port>
			</output>
		</layer>
		<layer id="128" name="Constant_1259" type="Convert" version="opset1">
			<data destination_type="f32"/>
			<rt_info>
				<attribute name="decompression" version="0"/>
				<attribute name="fused_names" version="0" value="Constant_1259"/>
			</rt_info>
			<input>
				<port id="0" precision="FP16">
					<dim>1</dim>
				</port>
			</input>
			<output>
				<port id="1" precision="FP32">
					<dim>1</dim>
				</port>
			</output>
		</layer>
		<layer id="129" name="960" type="PReLU" version="opset1">
			<rt_info>
				<attribute name="fused_names" version="0" value="960"/>
			</rt_info>
			<input>
				<port id="0" precision="FP32">
					<dim>1</dim>
					<dim>58</dim>
					<dim>40</dim>
					<dim>40</dim>
				</port>
				<port id="1" precision="FP32">
					<dim>1</dim>
				</port>
			</input>
			<output>
				<port id="2" precision="FP32" names="960">
					<dim>1</dim>
					<dim>58</dim>
					<dim>40</dim>
					<dim>40</dim>
				</port>
			</output>
		</layer>
		<layer id="130" name="961" type="Concat" version="opset1">
			<data axis="1"/>
			<rt_info>
				<attribute name="fused_names" version="0" value="961"/>
			</rt_info>
			<input>
				<port id="0" precision="FP32">
					<dim>1</dim>
					<dim>58</dim>
					<dim>40</dim>
					<dim>40</dim>
				</port>
				<port id="1" precision="FP32">
					<dim>1</dim>
					<dim>58</dim>
					<dim>40</dim>
					<dim>40</dim>
				</port>
			</input>
			<output>
				<port id="2" precision="FP32" names="961">
					<dim>1</dim>
					<dim>116</dim>
					<dim>40</dim>
					<dim>40</dim>
				</port>
			</output>
		</layer>
		<layer id="131" name="963" type="Reshape" version="opset1">
			<data special_zero="true"/>
			<rt_info>
				<attribute name="fused_names" version="0" value="963"/>
			</rt_info>
			<input>
				<port id="0" precision="FP32">
					<dim>1</dim>
					<dim>116</dim>
					<dim>40</dim>
					<dim>40</dim>
				</port>
				<port id="1" precision="I64">
					<dim>5</dim>
				</port>
			</input>
			<output>
				<port id="2" precision="FP32" names="963">
					<dim>1</dim>
					<dim>2</dim>
					<dim>58</dim>
					<dim>40</dim>
					<dim>40</dim>
				</port>
			</output>
		</layer>
		<layer id="132" name="Constant_1265" type="Const" version="opset1">
			<data element_type="i64" shape="5" offset="41270" size="40"/>
			<rt_info>
				<attribute name="fused_names" version="0" value="Constant_1265"/>
			</rt_info>
			<output>
				<port id="0" precision="I64">
					<dim>5</dim>
				</port>
			</output>
		</layer>
		<layer id="133" name="964" type="Transpose" version="opset1">
			<rt_info>
				<attribute name="fused_names" version="0" value="964"/>
			</rt_info>
			<input>
				<port id="0" precision="FP32">
					<dim>1</dim>
					<dim>2</dim>
					<dim>58</dim>
					<dim>40</dim>
					<dim>40</dim>
				</port>
				<port id="1" precision="I64">
					<dim>5</dim>
				</port>
			</input>
			<output>
				<port id="2" precision="FP32" names="964">
					<dim>1</dim>
					<dim>58</dim>
					<dim>2</dim>
					<dim>40</dim>
					<dim>40</dim>
				</port>
			</output>
		</layer>
		<layer id="134" name="966" type="Reshape" version="opset1">
			<data special_zero="true"/>
			<rt_info>
				<attribute name="fused_names" version="0" value="966"/>
			</rt_info>
			<input>
				<port id="0" precision="FP32">
					<dim>1</dim>
					<dim>58</dim>
					<dim>2</dim>
					<dim>40</dim>
					<dim>40</dim>
				</port>
				<port id="1" precision="I64">
					<dim>4</dim>
				</port>
			</input>
			<output>
				<port id="2" precision="FP32" names="966">
					<dim>1</dim>
					<dim>116</dim>
					<dim>40</dim>
					<dim>40</dim>
				</port>
			</output>
		</layer>
		<layer id="135" name="Constant_28314" type="Const" version="opset1">
			<data element_type="i64" shape="2" offset="41342" size="16"/>
			<rt_info>
				<attribute name="fused_names" version="0" value="977, Broadcast_1272, Constant_1270"/>
			</rt_info>
			<output>
				<port id="0" precision="I64">
					<dim>2</dim>
				</port>
			</output>
		</layer>
		<layer id="136" name="Constant_28317" type="Const" version="opset1">
			<data element_type="i64" shape="2" offset="41358" size="16"/>
			<rt_info>
				<attribute name="fused_names" version="0" value="977, Broadcast_1272, Constant_1270"/>
			</rt_info>
			<output>
				<port id="0" precision="I64">
					<dim>2</dim>
				</port>
			</output>
		</layer>
		<layer id="137" name="Constant_28320" type="Const" version="opset1">
			<data element_type="i64" shape="2" offset="41374" size="16"/>
			<rt_info>
				<attribute name="fused_names" version="0" value="977, Broadcast_1272, Constant_1270"/>
			</rt_info>
			<output>
				<port id="0" precision="I64">
					<dim>2</dim>
				</port>
			</output>
		</layer>
		<layer id="138" name="977" type="StridedSlice" version="opset1">
			<data begin_mask="1, 0" end_mask="1, 0" new_axis_mask="" shrink_axis_mask="" ellipsis_mask=""/>
			<rt_info>
				<attribute name="fused_names" version="0" value="977, Broadcast_1272, Constant_1270"/>
			</rt_info>
			<input>
				<port id="0" precision="FP32">
					<dim>1</dim>
					<dim>116</dim>
					<dim>40</dim>
					<dim>40</dim>
				</port>
				<port id="1" precision="I64">
					<dim>2</dim>
				</port>
				<port id="2" precision="I64">
					<dim>2</dim>
				</port>
				<port id="3" precision="I64">
					<dim>2</dim>
				</port>
			</input>
			<output>
				<port id="4" precision="FP32" names="977">
					<dim>1</dim>
					<dim>58</dim>
					<dim>40</dim>
					<dim>40</dim>
				</port>
			</output>
		</layer>
		<layer id="139" name="Constant_28326" type="Const" version="opset1">
			<data element_type="i64" shape="2" offset="41358" size="16"/>
			<rt_info>
				<attribute name="fused_names" version="0" value="980, Broadcast_1291, Constant_1289"/>
			</rt_info>
			<output>
				<port id="0" precision="I64">
					<dim>2</dim>
				</port>
			</output>
		</layer>
		<layer id="140" name="Constant_28329" type="Const" version="opset1">
			<data element_type="i64" shape="2" offset="41390" size="16"/>
			<rt_info>
				<attribute name="fused_names" version="0" value="980, Broadcast_1291, Constant_1289"/>
			</rt_info>
			<output>
				<port id="0" precision="I64">
					<dim>2</dim>
				</port>
			</output>
		</layer>
		<layer id="141" name="Constant_28332" type="Const" version="opset1">
			<data element_type="i64" shape="2" offset="41374" size="16"/>
			<rt_info>
				<attribute name="fused_names" version="0" value="980, Broadcast_1291, Constant_1289"/>
			</rt_info>
			<output>
				<port id="0" precision="I64">
					<dim>2</dim>
				</port>
			</output>
		</layer>
		<layer id="142" name="980" type="StridedSlice" version="opset1">
			<data begin_mask="1, 0" end_mask="1, 0" new_axis_mask="" shrink_axis_mask="" ellipsis_mask=""/>
			<rt_info>
				<attribute name="fused_names" version="0" value="980, Broadcast_1291, Constant_1289"/>
			</rt_info>
			<input>
				<port id="0" precision="FP32">
					<dim>1</dim>
					<dim>116</dim>
					<dim>40</dim>
					<dim>40</dim>
				</port>
				<port id="1" precision="I64">
					<dim>2</dim>
				</port>
				<port id="2" precision="I64">
					<dim>2</dim>
				</port>
				<port id="3" precision="I64">
					<dim>2</dim>
				</port>
			</input>
			<output>
				<port id="4" precision="FP32" names="980">
					<dim>1</dim>
					<dim>58</dim>
					<dim>40</dim>
					<dim>40</dim>
				</port>
			</output>
		</layer>
		<layer id="143" name="2125_compressed" type="Const" version="opset1">
			<data element_type="f16" shape="58, 58, 1, 1" offset="71102" size="6728"/>
			<output>
				<port id="0" precision="FP16">
					<dim>58</dim>
					<dim>58</dim>
					<dim>1</dim>
					<dim>1</dim>
				</port>
			</output>
		</layer>
		<layer id="144" name="2125" type="Convert" version="opset1">
			<data destination_type="f32"/>
			<rt_info>
				<attribute name="decompression" version="0"/>
				<attribute name="fused_names" version="0" value="2125"/>
			</rt_info>
			<input>
				<port id="0" precision="FP16">
					<dim>58</dim>
					<dim>58</dim>
					<dim>1</dim>
					<dim>1</dim>
				</port>
			</input>
			<output>
				<port id="1" precision="FP32" names="2125">
					<dim>58</dim>
					<dim>58</dim>
					<dim>1</dim>
					<dim>1</dim>
				</port>
			</output>
		</layer>
		<layer id="145" name="Convolution_1308" type="Convolution" version="opset1">
			<data strides="1, 1" dilations="1, 1" pads_begin="0, 0" pads_end="0, 0" auto_pad="explicit"/>
			<rt_info>
				<attribute name="fused_names" version="0" value="Convolution_1308"/>
			</rt_info>
			<input>
				<port id="0" precision="FP32">
					<dim>1</dim>
					<dim>58</dim>
					<dim>40</dim>
					<dim>40</dim>
				</port>
				<port id="1" precision="FP32">
					<dim>58</dim>
					<dim>58</dim>
					<dim>1</dim>
					<dim>1</dim>
				</port>
			</input>
			<output>
				<port id="2" precision="FP32">
					<dim>1</dim>
					<dim>58</dim>
					<dim>40</dim>
					<dim>40</dim>
				</port>
			</output>
		</layer>
		<layer id="146" name="Reshape_1328_compressed" type="Const" version="opset1">
			<data element_type="f16" shape="1, 58, 1, 1" offset="77830" size="116"/>
			<output>
				<port id="0" precision="FP16">
					<dim>1</dim>
					<dim>58</dim>
					<dim>1</dim>
					<dim>1</dim>
				</port>
			</output>
		</layer>
		<layer id="147" name="Reshape_1328" type="Convert" version="opset1">
			<data destination_type="f32"/>
			<rt_info>
				<attribute name="decompression" version="0"/>
			</rt_info>
			<input>
				<port id="0" precision="FP16">
					<dim>1</dim>
					<dim>58</dim>
					<dim>1</dim>
					<dim>1</dim>
				</port>
			</input>
			<output>
				<port id="1" precision="FP32">
					<dim>1</dim>
					<dim>58</dim>
					<dim>1</dim>
					<dim>1</dim>
				</port>
			</output>
		</layer>
		<layer id="148" name="2124" type="Add" version="opset1">
			<data auto_broadcast="numpy"/>
			<rt_info>
				<attribute name="fused_names" version="0" value="2124, Concat_1327, Constant_1311, Reshape_1328"/>
			</rt_info>
			<input>
				<port id="0" precision="FP32">
					<dim>1</dim>
					<dim>58</dim>
					<dim>40</dim>
					<dim>40</dim>
				</port>
				<port id="1" precision="FP32">
					<dim>1</dim>
					<dim>58</dim>
					<dim>1</dim>
					<dim>1</dim>
				</port>
			</input>
			<output>
				<port id="2" precision="FP32" names="2124">
					<dim>1</dim>
					<dim>58</dim>
					<dim>40</dim>
					<dim>40</dim>
				</port>
			</output>
		</layer>
		<layer id="149" name="Constant_1356_compressed" type="Const" version="opset1">
			<data element_type="f16" shape="1" offset="26944" size="2"/>
			<output>
				<port id="0" precision="FP16">
					<dim>1</dim>
				</port>
			</output>
		</layer>
		<layer id="150" name="Constant_1356" type="Convert" version="opset1">
			<data destination_type="f32"/>
			<rt_info>
				<attribute name="decompression" version="0"/>
				<attribute name="fused_names" version="0" value="Constant_1356"/>
			</rt_info>
			<input>
				<port id="0" precision="FP16">
					<dim>1</dim>
				</port>
			</input>
			<output>
				<port id="1" precision="FP32">
					<dim>1</dim>
				</port>
			</output>
		</layer>
		<layer id="151" name="983" type="PReLU" version="opset1">
			<rt_info>
				<attribute name="fused_names" version="0" value="983"/>
			</rt_info>
			<input>
				<port id="0" precision="FP32">
					<dim>1</dim>
					<dim>58</dim>
					<dim>40</dim>
					<dim>40</dim>
				</port>
				<port id="1" precision="FP32">
					<dim>1</dim>
				</port>
			</input>
			<output>
				<port id="2" precision="FP32" names="983">
					<dim>1</dim>
					<dim>58</dim>
					<dim>40</dim>
					<dim>40</dim>
				</port>
			</output>
		</layer>
		<layer id="152" name="Reshape_1365_compressed" type="Const" version="opset1">
			<data element_type="f16" shape="58, 1, 1, 3, 3" offset="77946" size="1044"/>
			<output>
				<port id="0" precision="FP16">
					<dim>58</dim>
					<dim>1</dim>
					<dim>1</dim>
					<dim>3</dim>
					<dim>3</dim>
				</port>
			</output>
		</layer>
		<layer id="153" name="Reshape_1365" type="Convert" version="opset1">
			<data destination_type="f32"/>
			<rt_info>
				<attribute name="decompression" version="0"/>
			</rt_info>
			<input>
				<port id="0" precision="FP16">
					<dim>58</dim>
					<dim>1</dim>
					<dim>1</dim>
					<dim>3</dim>
					<dim>3</dim>
				</port>
			</input>
			<output>
				<port id="1" precision="FP32">
					<dim>58</dim>
					<dim>1</dim>
					<dim>1</dim>
					<dim>3</dim>
					<dim>3</dim>
				</port>
			</output>
		</layer>
		<layer id="154" name="GroupConvolution_1431" type="GroupConvolution" version="opset1">
			<data strides="1, 1" pads_begin="1, 1" pads_end="1, 1" dilations="1, 1" auto_pad="explicit"/>
			<rt_info>
				<attribute name="fused_names" version="0" value="GroupConvolution_1431, Reshape_1365"/>
			</rt_info>
			<input>
				<port id="0" precision="FP32">
					<dim>1</dim>
					<dim>58</dim>
					<dim>40</dim>
					<dim>40</dim>
				</port>
				<port id="1" precision="FP32">
					<dim>58</dim>
					<dim>1</dim>
					<dim>1</dim>
					<dim>3</dim>
					<dim>3</dim>
				</port>
			</input>
			<output>
				<port id="2" precision="FP32">
					<dim>1</dim>
					<dim>58</dim>
					<dim>40</dim>
					<dim>40</dim>
				</port>
			</output>
		</layer>
		<layer id="155" name="Reshape_1451_compressed" type="Const" version="opset1">
			<data element_type="f16" shape="1, 58, 1, 1" offset="78990" size="116"/>
			<output>
				<port id="0" precision="FP16">
					<dim>1</dim>
					<dim>58</dim>
					<dim>1</dim>
					<dim>1</dim>
				</port>
			</output>
		</layer>
		<layer id="156" name="Reshape_1451" type="Convert" version="opset1">
			<data destination_type="f32"/>
			<rt_info>
				<attribute name="decompression" version="0"/>
			</rt_info>
			<input>
				<port id="0" precision="FP16">
					<dim>1</dim>
					<dim>58</dim>
					<dim>1</dim>
					<dim>1</dim>
				</port>
			</input>
			<output>
				<port id="1" precision="FP32">
					<dim>1</dim>
					<dim>58</dim>
					<dim>1</dim>
					<dim>1</dim>
				</port>
			</output>
		</layer>
		<layer id="157" name="2127" type="Add" version="opset1">
			<data auto_broadcast="numpy"/>
			<rt_info>
				<attribute name="fused_names" version="0" value="2127, Concat_1450, Constant_1434, Reshape_1451"/>
			</rt_info>
			<input>
				<port id="0" precision="FP32">
					<dim>1</dim>
					<dim>58</dim>
					<dim>40</dim>
					<dim>40</dim>
				</port>
				<port id="1" precision="FP32">
					<dim>1</dim>
					<dim>58</dim>
					<dim>1</dim>
					<dim>1</dim>
				</port>
			</input>
			<output>
				<port id="2" precision="FP32" names="2127">
					<dim>1</dim>
					<dim>58</dim>
					<dim>40</dim>
					<dim>40</dim>
				</port>
			</output>
		</layer>
		<layer id="158" name="2131_compressed" type="Const" version="opset1">
			<data element_type="f16" shape="58, 58, 1, 1" offset="79106" size="6728"/>
			<output>
				<port id="0" precision="FP16">
					<dim>58</dim>
					<dim>58</dim>
					<dim>1</dim>
					<dim>1</dim>
				</port>
			</output>
		</layer>
		<layer id="159" name="2131" type="Convert" version="opset1">
			<data destination_type="f32"/>
			<rt_info>
				<attribute name="decompression" version="0"/>
				<attribute name="fused_names" version="0" value="2131"/>
			</rt_info>
			<input>
				<port id="0" precision="FP16">
					<dim>58</dim>
					<dim>58</dim>
					<dim>1</dim>
					<dim>1</dim>
				</port>
			</input>
			<output>
				<port id="1" precision="FP32" names="2131">
					<dim>58</dim>
					<dim>58</dim>
					<dim>1</dim>
					<dim>1</dim>
				</port>
			</output>
		</layer>
		<layer id="160" name="Convolution_1479" type="Convolution" version="opset1">
			<data strides="1, 1" dilations="1, 1" pads_begin="0, 0" pads_end="0, 0" auto_pad="explicit"/>
			<rt_info>
				<attribute name="fused_names" version="0" value="Convolution_1479"/>
			</rt_info>
			<input>
				<port id="0" precision="FP32">
					<dim>1</dim>
					<dim>58</dim>
					<dim>40</dim>
					<dim>40</dim>
				</port>
				<port id="1" precision="FP32">
					<dim>58</dim>
					<dim>58</dim>
					<dim>1</dim>
					<dim>1</dim>
				</port>
			</input>
			<output>
				<port id="2" precision="FP32">
					<dim>1</dim>
					<dim>58</dim>
					<dim>40</dim>
					<dim>40</dim>
				</port>
			</output>
		</layer>
		<layer id="161" name="Reshape_1499_compressed" type="Const" version="opset1">
			<data element_type="f16" shape="1, 58, 1, 1" offset="85834" size="116"/>
			<output>
				<port id="0" precision="FP16">
					<dim>1</dim>
					<dim>58</dim>
					<dim>1</dim>
					<dim>1</dim>
				</port>
			</output>
		</layer>
		<layer id="162" name="Reshape_1499" type="Convert" version="opset1">
			<data destination_type="f32"/>
			<rt_info>
				<attribute name="decompression" version="0"/>
			</rt_info>
			<input>
				<port id="0" precision="FP16">
					<dim>1</dim>
					<dim>58</dim>
					<dim>1</dim>
					<dim>1</dim>
				</port>
			</input>
			<output>
				<port id="1" precision="FP32">
					<dim>1</dim>
					<dim>58</dim>
					<dim>1</dim>
					<dim>1</dim>
				</port>
			</output>
		</layer>
		<layer id="163" name="2130" type="Add" version="opset1">
			<data auto_broadcast="numpy"/>
			<rt_info>
				<attribute name="fused_names" version="0" value="2130, Concat_1498, Constant_1482, Reshape_1499"/>
			</rt_info>
			<input>
				<port id="0" precision="FP32">
					<dim>1</dim>
					<dim>58</dim>
					<dim>40</dim>
					<dim>40</dim>
				</port>
				<port id="1" precision="FP32">
					<dim>1</dim>
					<dim>58</dim>
					<dim>1</dim>
					<dim>1</dim>
				</port>
			</input>
			<output>
				<port id="2" precision="FP32" names="2130">
					<dim>1</dim>
					<dim>58</dim>
					<dim>40</dim>
					<dim>40</dim>
				</port>
			</output>
		</layer>
		<layer id="164" name="Constant_1527_compressed" type="Const" version="opset1">
			<data element_type="f16" shape="1" offset="26944" size="2"/>
			<output>
				<port id="0" precision="FP16">
					<dim>1</dim>
				</port>
			</output>
		</layer>
		<layer id="165" name="Constant_1527" type="Convert" version="opset1">
			<data destination_type="f32"/>
			<rt_info>
				<attribute name="decompression" version="0"/>
				<attribute name="fused_names" version="0" value="Constant_1527"/>
			</rt_info>
			<input>
				<port id="0" precision="FP16">
					<dim>1</dim>
				</port>
			</input>
			<output>
				<port id="1" precision="FP32">
					<dim>1</dim>
				</port>
			</output>
		</layer>
		<layer id="166" name="988" type="PReLU" version="opset1">
			<rt_info>
				<attribute name="fused_names" version="0" value="988"/>
			</rt_info>
			<input>
				<port id="0" precision="FP32">
					<dim>1</dim>
					<dim>58</dim>
					<dim>40</dim>
					<dim>40</dim>
				</port>
				<port id="1" precision="FP32">
					<dim>1</dim>
				</port>
			</input>
			<output>
				<port id="2" precision="FP32" names="988">
					<dim>1</dim>
					<dim>58</dim>
					<dim>40</dim>
					<dim>40</dim>
				</port>
			</output>
		</layer>
		<layer id="167" name="989" type="Concat" version="opset1">
			<data axis="1"/>
			<rt_info>
				<attribute name="fused_names" version="0" value="989"/>
			</rt_info>
			<input>
				<port id="0" precision="FP32">
					<dim>1</dim>
					<dim>58</dim>
					<dim>40</dim>
					<dim>40</dim>
				</port>
				<port id="1" precision="FP32">
					<dim>1</dim>
					<dim>58</dim>
					<dim>40</dim>
					<dim>40</dim>
				</port>
			</input>
			<output>
				<port id="2" precision="FP32" names="989">
					<dim>1</dim>
					<dim>116</dim>
					<dim>40</dim>
					<dim>40</dim>
				</port>
			</output>
		</layer>
		<layer id="168" name="991" type="Reshape" version="opset1">
			<data special_zero="true"/>
			<rt_info>
				<attribute name="fused_names" version="0" value="991"/>
			</rt_info>
			<input>
				<port id="0" precision="FP32">
					<dim>1</dim>
					<dim>116</dim>
					<dim>40</dim>
					<dim>40</dim>
				</port>
				<port id="1" precision="I64">
					<dim>5</dim>
				</port>
			</input>
			<output>
				<port id="2" precision="FP32" names="991">
					<dim>1</dim>
					<dim>2</dim>
					<dim>58</dim>
					<dim>40</dim>
					<dim>40</dim>
				</port>
			</output>
		</layer>
		<layer id="169" name="Constant_1533" type="Const" version="opset1">
			<data element_type="i64" shape="5" offset="41270" size="40"/>
			<rt_info>
				<attribute name="fused_names" version="0" value="Constant_1533"/>
			</rt_info>
			<output>
				<port id="0" precision="I64">
					<dim>5</dim>
				</port>
			</output>
		</layer>
		<layer id="170" name="992" type="Transpose" version="opset1">
			<rt_info>
				<attribute name="fused_names" version="0" value="992"/>
			</rt_info>
			<input>
				<port id="0" precision="FP32">
					<dim>1</dim>
					<dim>2</dim>
					<dim>58</dim>
					<dim>40</dim>
					<dim>40</dim>
				</port>
				<port id="1" precision="I64">
					<dim>5</dim>
				</port>
			</input>
			<output>
				<port id="2" precision="FP32" names="992">
					<dim>1</dim>
					<dim>58</dim>
					<dim>2</dim>
					<dim>40</dim>
					<dim>40</dim>
				</port>
			</output>
		</layer>
		<layer id="171" name="994" type="Reshape" version="opset1">
			<data special_zero="true"/>
			<rt_info>
				<attribute name="fused_names" version="0" value="994"/>
			</rt_info>
			<input>
				<port id="0" precision="FP32">
					<dim>1</dim>
					<dim>58</dim>
					<dim>2</dim>
					<dim>40</dim>
					<dim>40</dim>
				</port>
				<port id="1" precision="I64">
					<dim>4</dim>
				</port>
			</input>
			<output>
				<port id="2" precision="FP32" names="994">
					<dim>1</dim>
					<dim>116</dim>
					<dim>40</dim>
					<dim>40</dim>
				</port>
			</output>
		</layer>
		<layer id="172" name="Reshape_1545_compressed" type="Const" version="opset1">
			<data element_type="f16" shape="116, 1, 1, 3, 3" offset="85950" size="2088"/>
			<output>
				<port id="0" precision="FP16">
					<dim>116</dim>
					<dim>1</dim>
					<dim>1</dim>
					<dim>3</dim>
					<dim>3</dim>
				</port>
			</output>
		</layer>
		<layer id="173" name="Reshape_1545" type="Convert" version="opset1">
			<data destination_type="f32"/>
			<rt_info>
				<attribute name="decompression" version="0"/>
			</rt_info>
			<input>
				<port id="0" precision="FP16">
					<dim>116</dim>
					<dim>1</dim>
					<dim>1</dim>
					<dim>3</dim>
					<dim>3</dim>
				</port>
			</input>
			<output>
				<port id="1" precision="FP32">
					<dim>116</dim>
					<dim>1</dim>
					<dim>1</dim>
					<dim>3</dim>
					<dim>3</dim>
				</port>
			</output>
		</layer>
		<layer id="174" name="GroupConvolution_1611" type="GroupConvolution" version="opset1">
			<data strides="2, 2" pads_begin="1, 1" pads_end="1, 1" dilations="1, 1" auto_pad="explicit"/>
			<rt_info>
				<attribute name="fused_names" version="0" value="GroupConvolution_1611, Reshape_1545"/>
			</rt_info>
			<input>
				<port id="0" precision="FP32">
					<dim>1</dim>
					<dim>116</dim>
					<dim>40</dim>
					<dim>40</dim>
				</port>
				<port id="1" precision="FP32">
					<dim>116</dim>
					<dim>1</dim>
					<dim>1</dim>
					<dim>3</dim>
					<dim>3</dim>
				</port>
			</input>
			<output>
				<port id="2" precision="FP32">
					<dim>1</dim>
					<dim>116</dim>
					<dim>20</dim>
					<dim>20</dim>
				</port>
			</output>
		</layer>
		<layer id="175" name="Reshape_1631_compressed" type="Const" version="opset1">
			<data element_type="f16" shape="1, 116, 1, 1" offset="88038" size="232"/>
			<output>
				<port id="0" precision="FP16">
					<dim>1</dim>
					<dim>116</dim>
					<dim>1</dim>
					<dim>1</dim>
				</port>
			</output>
		</layer>
		<layer id="176" name="Reshape_1631" type="Convert" version="opset1">
			<data destination_type="f32"/>
			<rt_info>
				<attribute name="decompression" version="0"/>
			</rt_info>
			<input>
				<port id="0" precision="FP16">
					<dim>1</dim>
					<dim>116</dim>
					<dim>1</dim>
					<dim>1</dim>
				</port>
			</input>
			<output>
				<port id="1" precision="FP32">
					<dim>1</dim>
					<dim>116</dim>
					<dim>1</dim>
					<dim>1</dim>
				</port>
			</output>
		</layer>
		<layer id="177" name="2133" type="Add" version="opset1">
			<data auto_broadcast="numpy"/>
			<rt_info>
				<attribute name="fused_names" version="0" value="2133, Concat_1630, Constant_1614, Reshape_1631"/>
			</rt_info>
			<input>
				<port id="0" precision="FP32">
					<dim>1</dim>
					<dim>116</dim>
					<dim>20</dim>
					<dim>20</dim>
				</port>
				<port id="1" precision="FP32">
					<dim>1</dim>
					<dim>116</dim>
					<dim>1</dim>
					<dim>1</dim>
				</port>
			</input>
			<output>
				<port id="2" precision="FP32" names="2133">
					<dim>1</dim>
					<dim>116</dim>
					<dim>20</dim>
					<dim>20</dim>
				</port>
			</output>
		</layer>
		<layer id="178" name="2137_compressed" type="Const" version="opset1">
			<data element_type="f16" shape="116, 116, 1, 1" offset="88270" size="26912"/>
			<output>
				<port id="0" precision="FP16">
					<dim>116</dim>
					<dim>116</dim>
					<dim>1</dim>
					<dim>1</dim>
				</port>
			</output>
		</layer>
		<layer id="179" name="2137" type="Convert" version="opset1">
			<data destination_type="f32"/>
			<rt_info>
				<attribute name="decompression" version="0"/>
				<attribute name="fused_names" version="0" value="2137"/>
			</rt_info>
			<input>
				<port id="0" precision="FP16">
					<dim>116</dim>
					<dim>116</dim>
					<dim>1</dim>
					<dim>1</dim>
				</port>
			</input>
			<output>
				<port id="1" precision="FP32" names="2137">
					<dim>116</dim>
					<dim>116</dim>
					<dim>1</dim>
					<dim>1</dim>
				</port>
			</output>
		</layer>
		<layer id="180" name="Convolution_1659" type="Convolution" version="opset1">
			<data strides="1, 1" dilations="1, 1" pads_begin="0, 0" pads_end="0, 0" auto_pad="explicit"/>
			<rt_info>
				<attribute name="fused_names" version="0" value="Convolution_1659"/>
			</rt_info>
			<input>
				<port id="0" precision="FP32">
					<dim>1</dim>
					<dim>116</dim>
					<dim>20</dim>
					<dim>20</dim>
				</port>
				<port id="1" precision="FP32">
					<dim>116</dim>
					<dim>116</dim>
					<dim>1</dim>
					<dim>1</dim>
				</port>
			</input>
			<output>
				<port id="2" precision="FP32">
					<dim>1</dim>
					<dim>116</dim>
					<dim>20</dim>
					<dim>20</dim>
				</port>
			</output>
		</layer>
		<layer id="181" name="Reshape_1679_compressed" type="Const" version="opset1">
			<data element_type="f16" shape="1, 116, 1, 1" offset="115182" size="232"/>
			<output>
				<port id="0" precision="FP16">
					<dim>1</dim>
					<dim>116</dim>
					<dim>1</dim>
					<dim>1</dim>
				</port>
			</output>
		</layer>
		<layer id="182" name="Reshape_1679" type="Convert" version="opset1">
			<data destination_type="f32"/>
			<rt_info>
				<attribute name="decompression" version="0"/>
			</rt_info>
			<input>
				<port id="0" precision="FP16">
					<dim>1</dim>
					<dim>116</dim>
					<dim>1</dim>
					<dim>1</dim>
				</port>
			</input>
			<output>
				<port id="1" precision="FP32">
					<dim>1</dim>
					<dim>116</dim>
					<dim>1</dim>
					<dim>1</dim>
				</port>
			</output>
		</layer>
		<layer id="183" name="2136" type="Add" version="opset1">
			<data auto_broadcast="numpy"/>
			<rt_info>
				<attribute name="fused_names" version="0" value="2136, Concat_1678, Constant_1662, Reshape_1679"/>
			</rt_info>
			<input>
				<port id="0" precision="FP32">
					<dim>1</dim>
					<dim>116</dim>
					<dim>20</dim>
					<dim>20</dim>
				</port>
				<port id="1" precision="FP32">
					<dim>1</dim>
					<dim>116</dim>
					<dim>1</dim>
					<dim>1</dim>
				</port>
			</input>
			<output>
				<port id="2" precision="FP32" names="2136">
					<dim>1</dim>
					<dim>116</dim>
					<dim>20</dim>
					<dim>20</dim>
				</port>
			</output>
		</layer>
		<layer id="184" name="Constant_1707_compressed" type="Const" version="opset1">
			<data element_type="f16" shape="1" offset="26944" size="2"/>
			<output>
				<port id="0" precision="FP16">
					<dim>1</dim>
				</port>
			</output>
		</layer>
		<layer id="185" name="Constant_1707" type="Convert" version="opset1">
			<data destination_type="f32"/>
			<rt_info>
				<attribute name="decompression" version="0"/>
				<attribute name="fused_names" version="0" value="Constant_1707"/>
			</rt_info>
			<input>
				<port id="0" precision="FP16">
					<dim>1</dim>
				</port>
			</input>
			<output>
				<port id="1" precision="FP32">
					<dim>1</dim>
				</port>
			</output>
		</layer>
		<layer id="186" name="999" type="PReLU" version="opset1">
			<rt_info>
				<attribute name="fused_names" version="0" value="999"/>
			</rt_info>
			<input>
				<port id="0" precision="FP32">
					<dim>1</dim>
					<dim>116</dim>
					<dim>20</dim>
					<dim>20</dim>
				</port>
				<port id="1" precision="FP32">
					<dim>1</dim>
				</port>
			</input>
			<output>
				<port id="2" precision="FP32" names="999">
					<dim>1</dim>
					<dim>116</dim>
					<dim>20</dim>
					<dim>20</dim>
				</port>
			</output>
		</layer>
		<layer id="187" name="2140_compressed" type="Const" version="opset1">
			<data element_type="f16" shape="116, 116, 1, 1" offset="115414" size="26912"/>
			<output>
				<port id="0" precision="FP16">
					<dim>116</dim>
					<dim>116</dim>
					<dim>1</dim>
					<dim>1</dim>
				</port>
			</output>
		</layer>
		<layer id="188" name="2140" type="Convert" version="opset1">
			<data destination_type="f32"/>
			<rt_info>
				<attribute name="decompression" version="0"/>
				<attribute name="fused_names" version="0" value="2140"/>
			</rt_info>
			<input>
				<port id="0" precision="FP16">
					<dim>116</dim>
					<dim>116</dim>
					<dim>1</dim>
					<dim>1</dim>
				</port>
			</input>
			<output>
				<port id="1" precision="FP32" names="2140">
					<dim>116</dim>
					<dim>116</dim>
					<dim>1</dim>
					<dim>1</dim>
				</port>
			</output>
		</layer>
		<layer id="189" name="Convolution_1709" type="Convolution" version="opset1">
			<data strides="1, 1" dilations="1, 1" pads_begin="0, 0" pads_end="0, 0" auto_pad="explicit"/>
			<rt_info>
				<attribute name="fused_names" version="0" value="Convolution_1709"/>
			</rt_info>
			<input>
				<port id="0" precision="FP32">
					<dim>1</dim>
					<dim>116</dim>
					<dim>40</dim>
					<dim>40</dim>
				</port>
				<port id="1" precision="FP32">
					<dim>116</dim>
					<dim>116</dim>
					<dim>1</dim>
					<dim>1</dim>
				</port>
			</input>
			<output>
				<port id="2" precision="FP32">
					<dim>1</dim>
					<dim>116</dim>
					<dim>40</dim>
					<dim>40</dim>
				</port>
			</output>
		</layer>
		<layer id="190" name="Reshape_1729_compressed" type="Const" version="opset1">
			<data element_type="f16" shape="1, 116, 1, 1" offset="142326" size="232"/>
			<output>
				<port id="0" precision="FP16">
					<dim>1</dim>
					<dim>116</dim>
					<dim>1</dim>
					<dim>1</dim>
				</port>
			</output>
		</layer>
		<layer id="191" name="Reshape_1729" type="Convert" version="opset1">
			<data destination_type="f32"/>
			<rt_info>
				<attribute name="decompression" version="0"/>
			</rt_info>
			<input>
				<port id="0" precision="FP16">
					<dim>1</dim>
					<dim>116</dim>
					<dim>1</dim>
					<dim>1</dim>
				</port>
			</input>
			<output>
				<port id="1" precision="FP32">
					<dim>1</dim>
					<dim>116</dim>
					<dim>1</dim>
					<dim>1</dim>
				</port>
			</output>
		</layer>
		<layer id="192" name="2139" type="Add" version="opset1">
			<data auto_broadcast="numpy"/>
			<rt_info>
				<attribute name="fused_names" version="0" value="2139, Concat_1728, Constant_1712, Reshape_1729"/>
			</rt_info>
			<input>
				<port id="0" precision="FP32">
					<dim>1</dim>
					<dim>116</dim>
					<dim>40</dim>
					<dim>40</dim>
				</port>
				<port id="1" precision="FP32">
					<dim>1</dim>
					<dim>116</dim>
					<dim>1</dim>
					<dim>1</dim>
				</port>
			</input>
			<output>
				<port id="2" precision="FP32" names="2139">
					<dim>1</dim>
					<dim>116</dim>
					<dim>40</dim>
					<dim>40</dim>
				</port>
			</output>
		</layer>
		<layer id="193" name="Constant_1757_compressed" type="Const" version="opset1">
			<data element_type="f16" shape="1" offset="26944" size="2"/>
			<output>
				<port id="0" precision="FP16">
					<dim>1</dim>
				</port>
			</output>
		</layer>
		<layer id="194" name="Constant_1757" type="Convert" version="opset1">
			<data destination_type="f32"/>
			<rt_info>
				<attribute name="decompression" version="0"/>
				<attribute name="fused_names" version="0" value="Constant_1757"/>
			</rt_info>
			<input>
				<port id="0" precision="FP16">
					<dim>1</dim>
				</port>
			</input>
			<output>
				<port id="1" precision="FP32">
					<dim>1</dim>
				</port>
			</output>
		</layer>
		<layer id="195" name="1002" type="PReLU" version="opset1">
			<rt_info>
				<attribute name="fused_names" version="0" value="1002"/>
			</rt_info>
			<input>
				<port id="0" precision="FP32">
					<dim>1</dim>
					<dim>116</dim>
					<dim>40</dim>
					<dim>40</dim>
				</port>
				<port id="1" precision="FP32">
					<dim>1</dim>
				</port>
			</input>
			<output>
				<port id="2" precision="FP32" names="1002">
					<dim>1</dim>
					<dim>116</dim>
					<dim>40</dim>
					<dim>40</dim>
				</port>
			</output>
		</layer>
		<layer id="196" name="Reshape_1766_compressed" type="Const" version="opset1">
			<data element_type="f16" shape="116, 1, 1, 3, 3" offset="142558" size="2088"/>
			<output>
				<port id="0" precision="FP16">
					<dim>116</dim>
					<dim>1</dim>
					<dim>1</dim>
					<dim>3</dim>
					<dim>3</dim>
				</port>
			</output>
		</layer>
		<layer id="197" name="Reshape_1766" type="Convert" version="opset1">
			<data destination_type="f32"/>
			<rt_info>
				<attribute name="decompression" version="0"/>
			</rt_info>
			<input>
				<port id="0" precision="FP16">
					<dim>116</dim>
					<dim>1</dim>
					<dim>1</dim>
					<dim>3</dim>
					<dim>3</dim>
				</port>
			</input>
			<output>
				<port id="1" precision="FP32">
					<dim>116</dim>
					<dim>1</dim>
					<dim>1</dim>
					<dim>3</dim>
					<dim>3</dim>
				</port>
			</output>
		</layer>
		<layer id="198" name="GroupConvolution_1832" type="GroupConvolution" version="opset1">
			<data strides="2, 2" pads_begin="1, 1" pads_end="1, 1" dilations="1, 1" auto_pad="explicit"/>
			<rt_info>
				<attribute name="fused_names" version="0" value="GroupConvolution_1832, Reshape_1766"/>
			</rt_info>
			<input>
				<port id="0" precision="FP32">
					<dim>1</dim>
					<dim>116</dim>
					<dim>40</dim>
					<dim>40</dim>
				</port>
				<port id="1" precision="FP32">
					<dim>116</dim>
					<dim>1</dim>
					<dim>1</dim>
					<dim>3</dim>
					<dim>3</dim>
				</port>
			</input>
			<output>
				<port id="2" precision="FP32">
					<dim>1</dim>
					<dim>116</dim>
					<dim>20</dim>
					<dim>20</dim>
				</port>
			</output>
		</layer>
		<layer id="199" name="Reshape_1852_compressed" type="Const" version="opset1">
			<data element_type="f16" shape="1, 116, 1, 1" offset="144646" size="232"/>
			<output>
				<port id="0" precision="FP16">
					<dim>1</dim>
					<dim>116</dim>
					<dim>1</dim>
					<dim>1</dim>
				</port>
			</output>
		</layer>
		<layer id="200" name="Reshape_1852" type="Convert" version="opset1">
			<data destination_type="f32"/>
			<rt_info>
				<attribute name="decompression" version="0"/>
			</rt_info>
			<input>
				<port id="0" precision="FP16">
					<dim>1</dim>
					<dim>116</dim>
					<dim>1</dim>
					<dim>1</dim>
				</port>
			</input>
			<output>
				<port id="1" precision="FP32">
					<dim>1</dim>
					<dim>116</dim>
					<dim>1</dim>
					<dim>1</dim>
				</port>
			</output>
		</layer>
		<layer id="201" name="2142" type="Add" version="opset1">
			<data auto_broadcast="numpy"/>
			<rt_info>
				<attribute name="fused_names" version="0" value="2142, Concat_1851, Constant_1835, Reshape_1852"/>
			</rt_info>
			<input>
				<port id="0" precision="FP32">
					<dim>1</dim>
					<dim>116</dim>
					<dim>20</dim>
					<dim>20</dim>
				</port>
				<port id="1" precision="FP32">
					<dim>1</dim>
					<dim>116</dim>
					<dim>1</dim>
					<dim>1</dim>
				</port>
			</input>
			<output>
				<port id="2" precision="FP32" names="2142">
					<dim>1</dim>
					<dim>116</dim>
					<dim>20</dim>
					<dim>20</dim>
				</port>
			</output>
		</layer>
		<layer id="202" name="2146_compressed" type="Const" version="opset1">
			<data element_type="f16" shape="116, 116, 1, 1" offset="144878" size="26912"/>
			<output>
				<port id="0" precision="FP16">
					<dim>116</dim>
					<dim>116</dim>
					<dim>1</dim>
					<dim>1</dim>
				</port>
			</output>
		</layer>
		<layer id="203" name="2146" type="Convert" version="opset1">
			<data destination_type="f32"/>
			<rt_info>
				<attribute name="decompression" version="0"/>
				<attribute name="fused_names" version="0" value="2146"/>
			</rt_info>
			<input>
				<port id="0" precision="FP16">
					<dim>116</dim>
					<dim>116</dim>
					<dim>1</dim>
					<dim>1</dim>
				</port>
			</input>
			<output>
				<port id="1" precision="FP32" names="2146">
					<dim>116</dim>
					<dim>116</dim>
					<dim>1</dim>
					<dim>1</dim>
				</port>
			</output>
		</layer>
		<layer id="204" name="Convolution_1880" type="Convolution" version="opset1">
			<data strides="1, 1" dilations="1, 1" pads_begin="0, 0" pads_end="0, 0" auto_pad="explicit"/>
			<rt_info>
				<attribute name="fused_names" version="0" value="Convolution_1880"/>
			</rt_info>
			<input>
				<port id="0" precision="FP32">
					<dim>1</dim>
					<dim>116</dim>
					<dim>20</dim>
					<dim>20</dim>
				</port>
				<port id="1" precision="FP32">
					<dim>116</dim>
					<dim>116</dim>
					<dim>1</dim>
					<dim>1</dim>
				</port>
			</input>
			<output>
				<port id="2" precision="FP32">
					<dim>1</dim>
					<dim>116</dim>
					<dim>20</dim>
					<dim>20</dim>
				</port>
			</output>
		</layer>
		<layer id="205" name="Reshape_1900_compressed" type="Const" version="opset1">
			<data element_type="f16" shape="1, 116, 1, 1" offset="171790" size="232"/>
			<output>
				<port id="0" precision="FP16">
					<dim>1</dim>
					<dim>116</dim>
					<dim>1</dim>
					<dim>1</dim>
				</port>
			</output>
		</layer>
		<layer id="206" name="Reshape_1900" type="Convert" version="opset1">
			<data destination_type="f32"/>
			<rt_info>
				<attribute name="decompression" version="0"/>
			</rt_info>
			<input>
				<port id="0" precision="FP16">
					<dim>1</dim>
					<dim>116</dim>
					<dim>1</dim>
					<dim>1</dim>
				</port>
			</input>
			<output>
				<port id="1" precision="FP32">
					<dim>1</dim>
					<dim>116</dim>
					<dim>1</dim>
					<dim>1</dim>
				</port>
			</output>
		</layer>
		<layer id="207" name="2145" type="Add" version="opset1">
			<data auto_broadcast="numpy"/>
			<rt_info>
				<attribute name="fused_names" version="0" value="2145, Concat_1899, Constant_1883, Reshape_1900"/>
			</rt_info>
			<input>
				<port id="0" precision="FP32">
					<dim>1</dim>
					<dim>116</dim>
					<dim>20</dim>
					<dim>20</dim>
				</port>
				<port id="1" precision="FP32">
					<dim>1</dim>
					<dim>116</dim>
					<dim>1</dim>
					<dim>1</dim>
				</port>
			</input>
			<output>
				<port id="2" precision="FP32" names="2145">
					<dim>1</dim>
					<dim>116</dim>
					<dim>20</dim>
					<dim>20</dim>
				</port>
			</output>
		</layer>
		<layer id="208" name="Constant_1928_compressed" type="Const" version="opset1">
			<data element_type="f16" shape="1" offset="26944" size="2"/>
			<output>
				<port id="0" precision="FP16">
					<dim>1</dim>
				</port>
			</output>
		</layer>
		<layer id="209" name="Constant_1928" type="Convert" version="opset1">
			<data destination_type="f32"/>
			<rt_info>
				<attribute name="decompression" version="0"/>
				<attribute name="fused_names" version="0" value="Constant_1928"/>
			</rt_info>
			<input>
				<port id="0" precision="FP16">
					<dim>1</dim>
				</port>
			</input>
			<output>
				<port id="1" precision="FP32">
					<dim>1</dim>
				</port>
			</output>
		</layer>
		<layer id="210" name="1007" type="PReLU" version="opset1">
			<rt_info>
				<attribute name="fused_names" version="0" value="1007"/>
			</rt_info>
			<input>
				<port id="0" precision="FP32">
					<dim>1</dim>
					<dim>116</dim>
					<dim>20</dim>
					<dim>20</dim>
				</port>
				<port id="1" precision="FP32">
					<dim>1</dim>
				</port>
			</input>
			<output>
				<port id="2" precision="FP32" names="1007">
					<dim>1</dim>
					<dim>116</dim>
					<dim>20</dim>
					<dim>20</dim>
				</port>
			</output>
		</layer>
		<layer id="211" name="1008" type="Concat" version="opset1">
			<data axis="1"/>
			<rt_info>
				<attribute name="fused_names" version="0" value="1008"/>
			</rt_info>
			<input>
				<port id="0" precision="FP32">
					<dim>1</dim>
					<dim>116</dim>
					<dim>20</dim>
					<dim>20</dim>
				</port>
				<port id="1" precision="FP32">
					<dim>1</dim>
					<dim>116</dim>
					<dim>20</dim>
					<dim>20</dim>
				</port>
			</input>
			<output>
				<port id="2" precision="FP32" names="1008">
					<dim>1</dim>
					<dim>232</dim>
					<dim>20</dim>
					<dim>20</dim>
				</port>
			</output>
		</layer>
		<layer id="212" name="1009" type="Const" version="opset1">
			<data element_type="i64" shape="5" offset="172022" size="40"/>
			<rt_info>
				<attribute name="fused_names" version="0" value="1009"/>
			</rt_info>
			<output>
				<port id="0" precision="I64" names="1009">
					<dim>5</dim>
				</port>
			</output>
		</layer>
		<layer id="213" name="1010" type="Reshape" version="opset1">
			<data special_zero="true"/>
			<rt_info>
				<attribute name="fused_names" version="0" value="1010"/>
			</rt_info>
			<input>
				<port id="0" precision="FP32">
					<dim>1</dim>
					<dim>232</dim>
					<dim>20</dim>
					<dim>20</dim>
				</port>
				<port id="1" precision="I64">
					<dim>5</dim>
				</port>
			</input>
			<output>
				<port id="2" precision="FP32" names="1010">
					<dim>1</dim>
					<dim>2</dim>
					<dim>116</dim>
					<dim>20</dim>
					<dim>20</dim>
				</port>
			</output>
		</layer>
		<layer id="214" name="Constant_1937" type="Const" version="opset1">
			<data element_type="i64" shape="5" offset="41270" size="40"/>
			<rt_info>
				<attribute name="fused_names" version="0" value="Constant_1937"/>
			</rt_info>
			<output>
				<port id="0" precision="I64">
					<dim>5</dim>
				</port>
			</output>
		</layer>
		<layer id="215" name="1011" type="Transpose" version="opset1">
			<rt_info>
				<attribute name="fused_names" version="0" value="1011"/>
			</rt_info>
			<input>
				<port id="0" precision="FP32">
					<dim>1</dim>
					<dim>2</dim>
					<dim>116</dim>
					<dim>20</dim>
					<dim>20</dim>
				</port>
				<port id="1" precision="I64">
					<dim>5</dim>
				</port>
			</input>
			<output>
				<port id="2" precision="FP32" names="1011">
					<dim>1</dim>
					<dim>116</dim>
					<dim>2</dim>
					<dim>20</dim>
					<dim>20</dim>
				</port>
			</output>
		</layer>
		<layer id="216" name="1012" type="Const" version="opset1">
			<data element_type="i64" shape="4" offset="172062" size="32"/>
			<rt_info>
				<attribute name="fused_names" version="0" value="1012"/>
			</rt_info>
			<output>
				<port id="0" precision="I64" names="1012">
					<dim>4</dim>
				</port>
			</output>
		</layer>
		<layer id="217" name="1013" type="Reshape" version="opset1">
			<data special_zero="true"/>
			<rt_info>
				<attribute name="fused_names" version="0" value="1013"/>
			</rt_info>
			<input>
				<port id="0" precision="FP32">
					<dim>1</dim>
					<dim>116</dim>
					<dim>2</dim>
					<dim>20</dim>
					<dim>20</dim>
				</port>
				<port id="1" precision="I64">
					<dim>4</dim>
				</port>
			</input>
			<output>
				<port id="2" precision="FP32" names="1013">
					<dim>1</dim>
					<dim>232</dim>
					<dim>20</dim>
					<dim>20</dim>
				</port>
			</output>
		</layer>
		<layer id="218" name="Constant_28338" type="Const" version="opset1">
			<data element_type="i64" shape="2" offset="41342" size="16"/>
			<rt_info>
				<attribute name="fused_names" version="0" value="1024, Broadcast_1947, Constant_1945"/>
			</rt_info>
			<output>
				<port id="0" precision="I64">
					<dim>2</dim>
				</port>
			</output>
		</layer>
		<layer id="219" name="Constant_28341" type="Const" version="opset1">
			<data element_type="i64" shape="2" offset="41390" size="16"/>
			<rt_info>
				<attribute name="fused_names" version="0" value="1024, Broadcast_1947, Constant_1945"/>
			</rt_info>
			<output>
				<port id="0" precision="I64">
					<dim>2</dim>
				</port>
			</output>
		</layer>
		<layer id="220" name="Constant_28344" type="Const" version="opset1">
			<data element_type="i64" shape="2" offset="41374" size="16"/>
			<rt_info>
				<attribute name="fused_names" version="0" value="1024, Broadcast_1947, Constant_1945"/>
			</rt_info>
			<output>
				<port id="0" precision="I64">
					<dim>2</dim>
				</port>
			</output>
		</layer>
		<layer id="221" name="1024" type="StridedSlice" version="opset1">
			<data begin_mask="1, 0" end_mask="1, 0" new_axis_mask="" shrink_axis_mask="" ellipsis_mask=""/>
			<rt_info>
				<attribute name="fused_names" version="0" value="1024, Broadcast_1947, Constant_1945"/>
			</rt_info>
			<input>
				<port id="0" precision="FP32">
					<dim>1</dim>
					<dim>232</dim>
					<dim>20</dim>
					<dim>20</dim>
				</port>
				<port id="1" precision="I64">
					<dim>2</dim>
				</port>
				<port id="2" precision="I64">
					<dim>2</dim>
				</port>
				<port id="3" precision="I64">
					<dim>2</dim>
				</port>
			</input>
			<output>
				<port id="4" precision="FP32" names="1024">
					<dim>1</dim>
					<dim>116</dim>
					<dim>20</dim>
					<dim>20</dim>
				</port>
			</output>
		</layer>
		<layer id="222" name="Constant_28350" type="Const" version="opset1">
			<data element_type="i64" shape="2" offset="41390" size="16"/>
			<rt_info>
				<attribute name="fused_names" version="0" value="1027, Broadcast_1966, Constant_1964"/>
			</rt_info>
			<output>
				<port id="0" precision="I64">
					<dim>2</dim>
				</port>
			</output>
		</layer>
		<layer id="223" name="Constant_28353" type="Const" version="opset1">
			<data element_type="i64" shape="2" offset="172094" size="16"/>
			<rt_info>
				<attribute name="fused_names" version="0" value="1027, Broadcast_1966, Constant_1964"/>
			</rt_info>
			<output>
				<port id="0" precision="I64">
					<dim>2</dim>
				</port>
			</output>
		</layer>
		<layer id="224" name="Constant_28356" type="Const" version="opset1">
			<data element_type="i64" shape="2" offset="41374" size="16"/>
			<rt_info>
				<attribute name="fused_names" version="0" value="1027, Broadcast_1966, Constant_1964"/>
			</rt_info>
			<output>
				<port id="0" precision="I64">
					<dim>2</dim>
				</port>
			</output>
		</layer>
		<layer id="225" name="1027" type="StridedSlice" version="opset1">
			<data begin_mask="1, 0" end_mask="1, 0" new_axis_mask="" shrink_axis_mask="" ellipsis_mask=""/>
			<rt_info>
				<attribute name="fused_names" version="0" value="1027, Broadcast_1966, Constant_1964"/>
			</rt_info>
			<input>
				<port id="0" precision="FP32">
					<dim>1</dim>
					<dim>232</dim>
					<dim>20</dim>
					<dim>20</dim>
				</port>
				<port id="1" precision="I64">
					<dim>2</dim>
				</port>
				<port id="2" precision="I64">
					<dim>2</dim>
				</port>
				<port id="3" precision="I64">
					<dim>2</dim>
				</port>
			</input>
			<output>
				<port id="4" precision="FP32" names="1027">
					<dim>1</dim>
					<dim>116</dim>
					<dim>20</dim>
					<dim>20</dim>
				</port>
			</output>
		</layer>
		<layer id="226" name="2149_compressed" type="Const" version="opset1">
			<data element_type="f16" shape="116, 116, 1, 1" offset="172110" size="26912"/>
			<output>
				<port id="0" precision="FP16">
					<dim>116</dim>
					<dim>116</dim>
					<dim>1</dim>
					<dim>1</dim>
				</port>
			</output>
		</layer>
		<layer id="227" name="2149" type="Convert" version="opset1">
			<data destination_type="f32"/>
			<rt_info>
				<attribute name="decompression" version="0"/>
				<attribute name="fused_names" version="0" value="2149"/>
			</rt_info>
			<input>
				<port id="0" precision="FP16">
					<dim>116</dim>
					<dim>116</dim>
					<dim>1</dim>
					<dim>1</dim>
				</port>
			</input>
			<output>
				<port id="1" precision="FP32" names="2149">
					<dim>116</dim>
					<dim>116</dim>
					<dim>1</dim>
					<dim>1</dim>
				</port>
			</output>
		</layer>
		<layer id="228" name="Convolution_1983" type="Convolution" version="opset1">
			<data strides="1, 1" dilations="1, 1" pads_begin="0, 0" pads_end="0, 0" auto_pad="explicit"/>
			<rt_info>
				<attribute name="fused_names" version="0" value="Convolution_1983"/>
			</rt_info>
			<input>
				<port id="0" precision="FP32">
					<dim>1</dim>
					<dim>116</dim>
					<dim>20</dim>
					<dim>20</dim>
				</port>
				<port id="1" precision="FP32">
					<dim>116</dim>
					<dim>116</dim>
					<dim>1</dim>
					<dim>1</dim>
				</port>
			</input>
			<output>
				<port id="2" precision="FP32">
					<dim>1</dim>
					<dim>116</dim>
					<dim>20</dim>
					<dim>20</dim>
				</port>
			</output>
		</layer>
		<layer id="229" name="Reshape_2003_compressed" type="Const" version="opset1">
			<data element_type="f16" shape="1, 116, 1, 1" offset="199022" size="232"/>
			<output>
				<port id="0" precision="FP16">
					<dim>1</dim>
					<dim>116</dim>
					<dim>1</dim>
					<dim>1</dim>
				</port>
			</output>
		</layer>
		<layer id="230" name="Reshape_2003" type="Convert" version="opset1">
			<data destination_type="f32"/>
			<rt_info>
				<attribute name="decompression" version="0"/>
			</rt_info>
			<input>
				<port id="0" precision="FP16">
					<dim>1</dim>
					<dim>116</dim>
					<dim>1</dim>
					<dim>1</dim>
				</port>
			</input>
			<output>
				<port id="1" precision="FP32">
					<dim>1</dim>
					<dim>116</dim>
					<dim>1</dim>
					<dim>1</dim>
				</port>
			</output>
		</layer>
		<layer id="231" name="2148" type="Add" version="opset1">
			<data auto_broadcast="numpy"/>
			<rt_info>
				<attribute name="fused_names" version="0" value="2148, Concat_2002, Constant_1986, Reshape_2003"/>
			</rt_info>
			<input>
				<port id="0" precision="FP32">
					<dim>1</dim>
					<dim>116</dim>
					<dim>20</dim>
					<dim>20</dim>
				</port>
				<port id="1" precision="FP32">
					<dim>1</dim>
					<dim>116</dim>
					<dim>1</dim>
					<dim>1</dim>
				</port>
			</input>
			<output>
				<port id="2" precision="FP32" names="2148">
					<dim>1</dim>
					<dim>116</dim>
					<dim>20</dim>
					<dim>20</dim>
				</port>
			</output>
		</layer>
		<layer id="232" name="Constant_2031_compressed" type="Const" version="opset1">
			<data element_type="f16" shape="1" offset="26944" size="2"/>
			<output>
				<port id="0" precision="FP16">
					<dim>1</dim>
				</port>
			</output>
		</layer>
		<layer id="233" name="Constant_2031" type="Convert" version="opset1">
			<data destination_type="f32"/>
			<rt_info>
				<attribute name="decompression" version="0"/>
				<attribute name="fused_names" version="0" value="Constant_2031"/>
			</rt_info>
			<input>
				<port id="0" precision="FP16">
					<dim>1</dim>
				</port>
			</input>
			<output>
				<port id="1" precision="FP32">
					<dim>1</dim>
				</port>
			</output>
		</layer>
		<layer id="234" name="1030" type="PReLU" version="opset1">
			<rt_info>
				<attribute name="fused_names" version="0" value="1030"/>
			</rt_info>
			<input>
				<port id="0" precision="FP32">
					<dim>1</dim>
					<dim>116</dim>
					<dim>20</dim>
					<dim>20</dim>
				</port>
				<port id="1" precision="FP32">
					<dim>1</dim>
				</port>
			</input>
			<output>
				<port id="2" precision="FP32" names="1030">
					<dim>1</dim>
					<dim>116</dim>
					<dim>20</dim>
					<dim>20</dim>
				</port>
			</output>
		</layer>
		<layer id="235" name="Reshape_2040_compressed" type="Const" version="opset1">
			<data element_type="f16" shape="116, 1, 1, 3, 3" offset="199254" size="2088"/>
			<output>
				<port id="0" precision="FP16">
					<dim>116</dim>
					<dim>1</dim>
					<dim>1</dim>
					<dim>3</dim>
					<dim>3</dim>
				</port>
			</output>
		</layer>
		<layer id="236" name="Reshape_2040" type="Convert" version="opset1">
			<data destination_type="f32"/>
			<rt_info>
				<attribute name="decompression" version="0"/>
			</rt_info>
			<input>
				<port id="0" precision="FP16">
					<dim>116</dim>
					<dim>1</dim>
					<dim>1</dim>
					<dim>3</dim>
					<dim>3</dim>
				</port>
			</input>
			<output>
				<port id="1" precision="FP32">
					<dim>116</dim>
					<dim>1</dim>
					<dim>1</dim>
					<dim>3</dim>
					<dim>3</dim>
				</port>
			</output>
		</layer>
		<layer id="237" name="GroupConvolution_2106" type="GroupConvolution" version="opset1">
			<data strides="1, 1" pads_begin="1, 1" pads_end="1, 1" dilations="1, 1" auto_pad="explicit"/>
			<rt_info>
				<attribute name="fused_names" version="0" value="GroupConvolution_2106, Reshape_2040"/>
			</rt_info>
			<input>
				<port id="0" precision="FP32">
					<dim>1</dim>
					<dim>116</dim>
					<dim>20</dim>
					<dim>20</dim>
				</port>
				<port id="1" precision="FP32">
					<dim>116</dim>
					<dim>1</dim>
					<dim>1</dim>
					<dim>3</dim>
					<dim>3</dim>
				</port>
			</input>
			<output>
				<port id="2" precision="FP32">
					<dim>1</dim>
					<dim>116</dim>
					<dim>20</dim>
					<dim>20</dim>
				</port>
			</output>
		</layer>
		<layer id="238" name="Reshape_2126_compressed" type="Const" version="opset1">
			<data element_type="f16" shape="1, 116, 1, 1" offset="201342" size="232"/>
			<output>
				<port id="0" precision="FP16">
					<dim>1</dim>
					<dim>116</dim>
					<dim>1</dim>
					<dim>1</dim>
				</port>
			</output>
		</layer>
		<layer id="239" name="Reshape_2126" type="Convert" version="opset1">
			<data destination_type="f32"/>
			<rt_info>
				<attribute name="decompression" version="0"/>
			</rt_info>
			<input>
				<port id="0" precision="FP16">
					<dim>1</dim>
					<dim>116</dim>
					<dim>1</dim>
					<dim>1</dim>
				</port>
			</input>
			<output>
				<port id="1" precision="FP32">
					<dim>1</dim>
					<dim>116</dim>
					<dim>1</dim>
					<dim>1</dim>
				</port>
			</output>
		</layer>
		<layer id="240" name="2151" type="Add" version="opset1">
			<data auto_broadcast="numpy"/>
			<rt_info>
				<attribute name="fused_names" version="0" value="2151, Concat_2125, Constant_2109, Reshape_2126"/>
			</rt_info>
			<input>
				<port id="0" precision="FP32">
					<dim>1</dim>
					<dim>116</dim>
					<dim>20</dim>
					<dim>20</dim>
				</port>
				<port id="1" precision="FP32">
					<dim>1</dim>
					<dim>116</dim>
					<dim>1</dim>
					<dim>1</dim>
				</port>
			</input>
			<output>
				<port id="2" precision="FP32" names="2151">
					<dim>1</dim>
					<dim>116</dim>
					<dim>20</dim>
					<dim>20</dim>
				</port>
			</output>
		</layer>
		<layer id="241" name="2155_compressed" type="Const" version="opset1">
			<data element_type="f16" shape="116, 116, 1, 1" offset="201574" size="26912"/>
			<output>
				<port id="0" precision="FP16">
					<dim>116</dim>
					<dim>116</dim>
					<dim>1</dim>
					<dim>1</dim>
				</port>
			</output>
		</layer>
		<layer id="242" name="2155" type="Convert" version="opset1">
			<data destination_type="f32"/>
			<rt_info>
				<attribute name="decompression" version="0"/>
				<attribute name="fused_names" version="0" value="2155"/>
			</rt_info>
			<input>
				<port id="0" precision="FP16">
					<dim>116</dim>
					<dim>116</dim>
					<dim>1</dim>
					<dim>1</dim>
				</port>
			</input>
			<output>
				<port id="1" precision="FP32" names="2155">
					<dim>116</dim>
					<dim>116</dim>
					<dim>1</dim>
					<dim>1</dim>
				</port>
			</output>
		</layer>
		<layer id="243" name="Convolution_2154" type="Convolution" version="opset1">
			<data strides="1, 1" dilations="1, 1" pads_begin="0, 0" pads_end="0, 0" auto_pad="explicit"/>
			<rt_info>
				<attribute name="fused_names" version="0" value="Convolution_2154"/>
			</rt_info>
			<input>
				<port id="0" precision="FP32">
					<dim>1</dim>
					<dim>116</dim>
					<dim>20</dim>
					<dim>20</dim>
				</port>
				<port id="1" precision="FP32">
					<dim>116</dim>
					<dim>116</dim>
					<dim>1</dim>
					<dim>1</dim>
				</port>
			</input>
			<output>
				<port id="2" precision="FP32">
					<dim>1</dim>
					<dim>116</dim>
					<dim>20</dim>
					<dim>20</dim>
				</port>
			</output>
		</layer>
		<layer id="244" name="Reshape_2174_compressed" type="Const" version="opset1">
			<data element_type="f16" shape="1, 116, 1, 1" offset="228486" size="232"/>
			<output>
				<port id="0" precision="FP16">
					<dim>1</dim>
					<dim>116</dim>
					<dim>1</dim>
					<dim>1</dim>
				</port>
			</output>
		</layer>
		<layer id="245" name="Reshape_2174" type="Convert" version="opset1">
			<data destination_type="f32"/>
			<rt_info>
				<attribute name="decompression" version="0"/>
			</rt_info>
			<input>
				<port id="0" precision="FP16">
					<dim>1</dim>
					<dim>116</dim>
					<dim>1</dim>
					<dim>1</dim>
				</port>
			</input>
			<output>
				<port id="1" precision="FP32">
					<dim>1</dim>
					<dim>116</dim>
					<dim>1</dim>
					<dim>1</dim>
				</port>
			</output>
		</layer>
		<layer id="246" name="2154" type="Add" version="opset1">
			<data auto_broadcast="numpy"/>
			<rt_info>
				<attribute name="fused_names" version="0" value="2154, Concat_2173, Constant_2157, Reshape_2174"/>
			</rt_info>
			<input>
				<port id="0" precision="FP32">
					<dim>1</dim>
					<dim>116</dim>
					<dim>20</dim>
					<dim>20</dim>
				</port>
				<port id="1" precision="FP32">
					<dim>1</dim>
					<dim>116</dim>
					<dim>1</dim>
					<dim>1</dim>
				</port>
			</input>
			<output>
				<port id="2" precision="FP32" names="2154">
					<dim>1</dim>
					<dim>116</dim>
					<dim>20</dim>
					<dim>20</dim>
				</port>
			</output>
		</layer>
		<layer id="247" name="Constant_2202_compressed" type="Const" version="opset1">
			<data element_type="f16" shape="1" offset="26944" size="2"/>
			<output>
				<port id="0" precision="FP16">
					<dim>1</dim>
				</port>
			</output>
		</layer>
		<layer id="248" name="Constant_2202" type="Convert" version="opset1">
			<data destination_type="f32"/>
			<rt_info>
				<attribute name="decompression" version="0"/>
				<attribute name="fused_names" version="0" value="Constant_2202"/>
			</rt_info>
			<input>
				<port id="0" precision="FP16">
					<dim>1</dim>
				</port>
			</input>
			<output>
				<port id="1" precision="FP32">
					<dim>1</dim>
				</port>
			</output>
		</layer>
		<layer id="249" name="1035" type="PReLU" version="opset1">
			<rt_info>
				<attribute name="fused_names" version="0" value="1035"/>
			</rt_info>
			<input>
				<port id="0" precision="FP32">
					<dim>1</dim>
					<dim>116</dim>
					<dim>20</dim>
					<dim>20</dim>
				</port>
				<port id="1" precision="FP32">
					<dim>1</dim>
				</port>
			</input>
			<output>
				<port id="2" precision="FP32" names="1035">
					<dim>1</dim>
					<dim>116</dim>
					<dim>20</dim>
					<dim>20</dim>
				</port>
			</output>
		</layer>
		<layer id="250" name="1036" type="Concat" version="opset1">
			<data axis="1"/>
			<rt_info>
				<attribute name="fused_names" version="0" value="1036"/>
			</rt_info>
			<input>
				<port id="0" precision="FP32">
					<dim>1</dim>
					<dim>116</dim>
					<dim>20</dim>
					<dim>20</dim>
				</port>
				<port id="1" precision="FP32">
					<dim>1</dim>
					<dim>116</dim>
					<dim>20</dim>
					<dim>20</dim>
				</port>
			</input>
			<output>
				<port id="2" precision="FP32" names="1036">
					<dim>1</dim>
					<dim>232</dim>
					<dim>20</dim>
					<dim>20</dim>
				</port>
			</output>
		</layer>
		<layer id="251" name="1038" type="Reshape" version="opset1">
			<data special_zero="true"/>
			<rt_info>
				<attribute name="fused_names" version="0" value="1038"/>
			</rt_info>
			<input>
				<port id="0" precision="FP32">
					<dim>1</dim>
					<dim>232</dim>
					<dim>20</dim>
					<dim>20</dim>
				</port>
				<port id="1" precision="I64">
					<dim>5</dim>
				</port>
			</input>
			<output>
				<port id="2" precision="FP32" names="1038">
					<dim>1</dim>
					<dim>2</dim>
					<dim>116</dim>
					<dim>20</dim>
					<dim>20</dim>
				</port>
			</output>
		</layer>
		<layer id="252" name="Constant_2208" type="Const" version="opset1">
			<data element_type="i64" shape="5" offset="41270" size="40"/>
			<rt_info>
				<attribute name="fused_names" version="0" value="Constant_2208"/>
			</rt_info>
			<output>
				<port id="0" precision="I64">
					<dim>5</dim>
				</port>
			</output>
		</layer>
		<layer id="253" name="1039" type="Transpose" version="opset1">
			<rt_info>
				<attribute name="fused_names" version="0" value="1039"/>
			</rt_info>
			<input>
				<port id="0" precision="FP32">
					<dim>1</dim>
					<dim>2</dim>
					<dim>116</dim>
					<dim>20</dim>
					<dim>20</dim>
				</port>
				<port id="1" precision="I64">
					<dim>5</dim>
				</port>
			</input>
			<output>
				<port id="2" precision="FP32" names="1039">
					<dim>1</dim>
					<dim>116</dim>
					<dim>2</dim>
					<dim>20</dim>
					<dim>20</dim>
				</port>
			</output>
		</layer>
		<layer id="254" name="1041" type="Reshape" version="opset1">
			<data special_zero="true"/>
			<rt_info>
				<attribute name="fused_names" version="0" value="1041"/>
			</rt_info>
			<input>
				<port id="0" precision="FP32">
					<dim>1</dim>
					<dim>116</dim>
					<dim>2</dim>
					<dim>20</dim>
					<dim>20</dim>
				</port>
				<port id="1" precision="I64">
					<dim>4</dim>
				</port>
			</input>
			<output>
				<port id="2" precision="FP32" names="1041">
					<dim>1</dim>
					<dim>232</dim>
					<dim>20</dim>
					<dim>20</dim>
				</port>
			</output>
		</layer>
		<layer id="255" name="Constant_28362" type="Const" version="opset1">
			<data element_type="i64" shape="2" offset="41342" size="16"/>
			<rt_info>
				<attribute name="fused_names" version="0" value="1052, Broadcast_2215, Constant_2213"/>
			</rt_info>
			<output>
				<port id="0" precision="I64">
					<dim>2</dim>
				</port>
			</output>
		</layer>
		<layer id="256" name="Constant_28365" type="Const" version="opset1">
			<data element_type="i64" shape="2" offset="41390" size="16"/>
			<rt_info>
				<attribute name="fused_names" version="0" value="1052, Broadcast_2215, Constant_2213"/>
			</rt_info>
			<output>
				<port id="0" precision="I64">
					<dim>2</dim>
				</port>
			</output>
		</layer>
		<layer id="257" name="Constant_28368" type="Const" version="opset1">
			<data element_type="i64" shape="2" offset="41374" size="16"/>
			<rt_info>
				<attribute name="fused_names" version="0" value="1052, Broadcast_2215, Constant_2213"/>
			</rt_info>
			<output>
				<port id="0" precision="I64">
					<dim>2</dim>
				</port>
			</output>
		</layer>
		<layer id="258" name="1052" type="StridedSlice" version="opset1">
			<data begin_mask="1, 0" end_mask="1, 0" new_axis_mask="" shrink_axis_mask="" ellipsis_mask=""/>
			<rt_info>
				<attribute name="fused_names" version="0" value="1052, Broadcast_2215, Constant_2213"/>
			</rt_info>
			<input>
				<port id="0" precision="FP32">
					<dim>1</dim>
					<dim>232</dim>
					<dim>20</dim>
					<dim>20</dim>
				</port>
				<port id="1" precision="I64">
					<dim>2</dim>
				</port>
				<port id="2" precision="I64">
					<dim>2</dim>
				</port>
				<port id="3" precision="I64">
					<dim>2</dim>
				</port>
			</input>
			<output>
				<port id="4" precision="FP32" names="1052">
					<dim>1</dim>
					<dim>116</dim>
					<dim>20</dim>
					<dim>20</dim>
				</port>
			</output>
		</layer>
		<layer id="259" name="Constant_28374" type="Const" version="opset1">
			<data element_type="i64" shape="2" offset="41390" size="16"/>
			<rt_info>
				<attribute name="fused_names" version="0" value="1055, Broadcast_2234, Constant_2232"/>
			</rt_info>
			<output>
				<port id="0" precision="I64">
					<dim>2</dim>
				</port>
			</output>
		</layer>
		<layer id="260" name="Constant_28377" type="Const" version="opset1">
			<data element_type="i64" shape="2" offset="172094" size="16"/>
			<rt_info>
				<attribute name="fused_names" version="0" value="1055, Broadcast_2234, Constant_2232"/>
			</rt_info>
			<output>
				<port id="0" precision="I64">
					<dim>2</dim>
				</port>
			</output>
		</layer>
		<layer id="261" name="Constant_28380" type="Const" version="opset1">
			<data element_type="i64" shape="2" offset="41374" size="16"/>
			<rt_info>
				<attribute name="fused_names" version="0" value="1055, Broadcast_2234, Constant_2232"/>
			</rt_info>
			<output>
				<port id="0" precision="I64">
					<dim>2</dim>
				</port>
			</output>
		</layer>
		<layer id="262" name="1055" type="StridedSlice" version="opset1">
			<data begin_mask="1, 0" end_mask="1, 0" new_axis_mask="" shrink_axis_mask="" ellipsis_mask=""/>
			<rt_info>
				<attribute name="fused_names" version="0" value="1055, Broadcast_2234, Constant_2232"/>
			</rt_info>
			<input>
				<port id="0" precision="FP32">
					<dim>1</dim>
					<dim>232</dim>
					<dim>20</dim>
					<dim>20</dim>
				</port>
				<port id="1" precision="I64">
					<dim>2</dim>
				</port>
				<port id="2" precision="I64">
					<dim>2</dim>
				</port>
				<port id="3" precision="I64">
					<dim>2</dim>
				</port>
			</input>
			<output>
				<port id="4" precision="FP32" names="1055">
					<dim>1</dim>
					<dim>116</dim>
					<dim>20</dim>
					<dim>20</dim>
				</port>
			</output>
		</layer>
		<layer id="263" name="2158_compressed" type="Const" version="opset1">
			<data element_type="f16" shape="116, 116, 1, 1" offset="228718" size="26912"/>
			<output>
				<port id="0" precision="FP16">
					<dim>116</dim>
					<dim>116</dim>
					<dim>1</dim>
					<dim>1</dim>
				</port>
			</output>
		</layer>
		<layer id="264" name="2158" type="Convert" version="opset1">
			<data destination_type="f32"/>
			<rt_info>
				<attribute name="decompression" version="0"/>
				<attribute name="fused_names" version="0" value="2158"/>
			</rt_info>
			<input>
				<port id="0" precision="FP16">
					<dim>116</dim>
					<dim>116</dim>
					<dim>1</dim>
					<dim>1</dim>
				</port>
			</input>
			<output>
				<port id="1" precision="FP32" names="2158">
					<dim>116</dim>
					<dim>116</dim>
					<dim>1</dim>
					<dim>1</dim>
				</port>
			</output>
		</layer>
		<layer id="265" name="Convolution_2251" type="Convolution" version="opset1">
			<data strides="1, 1" dilations="1, 1" pads_begin="0, 0" pads_end="0, 0" auto_pad="explicit"/>
			<rt_info>
				<attribute name="fused_names" version="0" value="Convolution_2251"/>
			</rt_info>
			<input>
				<port id="0" precision="FP32">
					<dim>1</dim>
					<dim>116</dim>
					<dim>20</dim>
					<dim>20</dim>
				</port>
				<port id="1" precision="FP32">
					<dim>116</dim>
					<dim>116</dim>
					<dim>1</dim>
					<dim>1</dim>
				</port>
			</input>
			<output>
				<port id="2" precision="FP32">
					<dim>1</dim>
					<dim>116</dim>
					<dim>20</dim>
					<dim>20</dim>
				</port>
			</output>
		</layer>
		<layer id="266" name="Reshape_2271_compressed" type="Const" version="opset1">
			<data element_type="f16" shape="1, 116, 1, 1" offset="255630" size="232"/>
			<output>
				<port id="0" precision="FP16">
					<dim>1</dim>
					<dim>116</dim>
					<dim>1</dim>
					<dim>1</dim>
				</port>
			</output>
		</layer>
		<layer id="267" name="Reshape_2271" type="Convert" version="opset1">
			<data destination_type="f32"/>
			<rt_info>
				<attribute name="decompression" version="0"/>
			</rt_info>
			<input>
				<port id="0" precision="FP16">
					<dim>1</dim>
					<dim>116</dim>
					<dim>1</dim>
					<dim>1</dim>
				</port>
			</input>
			<output>
				<port id="1" precision="FP32">
					<dim>1</dim>
					<dim>116</dim>
					<dim>1</dim>
					<dim>1</dim>
				</port>
			</output>
		</layer>
		<layer id="268" name="2157" type="Add" version="opset1">
			<data auto_broadcast="numpy"/>
			<rt_info>
				<attribute name="fused_names" version="0" value="2157, Concat_2270, Constant_2254, Reshape_2271"/>
			</rt_info>
			<input>
				<port id="0" precision="FP32">
					<dim>1</dim>
					<dim>116</dim>
					<dim>20</dim>
					<dim>20</dim>
				</port>
				<port id="1" precision="FP32">
					<dim>1</dim>
					<dim>116</dim>
					<dim>1</dim>
					<dim>1</dim>
				</port>
			</input>
			<output>
				<port id="2" precision="FP32" names="2157">
					<dim>1</dim>
					<dim>116</dim>
					<dim>20</dim>
					<dim>20</dim>
				</port>
			</output>
		</layer>
		<layer id="269" name="Constant_2299_compressed" type="Const" version="opset1">
			<data element_type="f16" shape="1" offset="26944" size="2"/>
			<output>
				<port id="0" precision="FP16">
					<dim>1</dim>
				</port>
			</output>
		</layer>
		<layer id="270" name="Constant_2299" type="Convert" version="opset1">
			<data destination_type="f32"/>
			<rt_info>
				<attribute name="decompression" version="0"/>
				<attribute name="fused_names" version="0" value="Constant_2299"/>
			</rt_info>
			<input>
				<port id="0" precision="FP16">
					<dim>1</dim>
				</port>
			</input>
			<output>
				<port id="1" precision="FP32">
					<dim>1</dim>
				</port>
			</output>
		</layer>
		<layer id="271" name="1058" type="PReLU" version="opset1">
			<rt_info>
				<attribute name="fused_names" version="0" value="1058"/>
			</rt_info>
			<input>
				<port id="0" precision="FP32">
					<dim>1</dim>
					<dim>116</dim>
					<dim>20</dim>
					<dim>20</dim>
				</port>
				<port id="1" precision="FP32">
					<dim>1</dim>
				</port>
			</input>
			<output>
				<port id="2" precision="FP32" names="1058">
					<dim>1</dim>
					<dim>116</dim>
					<dim>20</dim>
					<dim>20</dim>
				</port>
			</output>
		</layer>
		<layer id="272" name="Reshape_2308_compressed" type="Const" version="opset1">
			<data element_type="f16" shape="116, 1, 1, 3, 3" offset="255862" size="2088"/>
			<output>
				<port id="0" precision="FP16">
					<dim>116</dim>
					<dim>1</dim>
					<dim>1</dim>
					<dim>3</dim>
					<dim>3</dim>
				</port>
			</output>
		</layer>
		<layer id="273" name="Reshape_2308" type="Convert" version="opset1">
			<data destination_type="f32"/>
			<rt_info>
				<attribute name="decompression" version="0"/>
			</rt_info>
			<input>
				<port id="0" precision="FP16">
					<dim>116</dim>
					<dim>1</dim>
					<dim>1</dim>
					<dim>3</dim>
					<dim>3</dim>
				</port>
			</input>
			<output>
				<port id="1" precision="FP32">
					<dim>116</dim>
					<dim>1</dim>
					<dim>1</dim>
					<dim>3</dim>
					<dim>3</dim>
				</port>
			</output>
		</layer>
		<layer id="274" name="GroupConvolution_2374" type="GroupConvolution" version="opset1">
			<data strides="1, 1" pads_begin="1, 1" pads_end="1, 1" dilations="1, 1" auto_pad="explicit"/>
			<rt_info>
				<attribute name="fused_names" version="0" value="GroupConvolution_2374, Reshape_2308"/>
			</rt_info>
			<input>
				<port id="0" precision="FP32">
					<dim>1</dim>
					<dim>116</dim>
					<dim>20</dim>
					<dim>20</dim>
				</port>
				<port id="1" precision="FP32">
					<dim>116</dim>
					<dim>1</dim>
					<dim>1</dim>
					<dim>3</dim>
					<dim>3</dim>
				</port>
			</input>
			<output>
				<port id="2" precision="FP32">
					<dim>1</dim>
					<dim>116</dim>
					<dim>20</dim>
					<dim>20</dim>
				</port>
			</output>
		</layer>
		<layer id="275" name="Reshape_2394_compressed" type="Const" version="opset1">
			<data element_type="f16" shape="1, 116, 1, 1" offset="257950" size="232"/>
			<output>
				<port id="0" precision="FP16">
					<dim>1</dim>
					<dim>116</dim>
					<dim>1</dim>
					<dim>1</dim>
				</port>
			</output>
		</layer>
		<layer id="276" name="Reshape_2394" type="Convert" version="opset1">
			<data destination_type="f32"/>
			<rt_info>
				<attribute name="decompression" version="0"/>
			</rt_info>
			<input>
				<port id="0" precision="FP16">
					<dim>1</dim>
					<dim>116</dim>
					<dim>1</dim>
					<dim>1</dim>
				</port>
			</input>
			<output>
				<port id="1" precision="FP32">
					<dim>1</dim>
					<dim>116</dim>
					<dim>1</dim>
					<dim>1</dim>
				</port>
			</output>
		</layer>
		<layer id="277" name="2160" type="Add" version="opset1">
			<data auto_broadcast="numpy"/>
			<rt_info>
				<attribute name="fused_names" version="0" value="2160, Concat_2393, Constant_2377, Reshape_2394"/>
			</rt_info>
			<input>
				<port id="0" precision="FP32">
					<dim>1</dim>
					<dim>116</dim>
					<dim>20</dim>
					<dim>20</dim>
				</port>
				<port id="1" precision="FP32">
					<dim>1</dim>
					<dim>116</dim>
					<dim>1</dim>
					<dim>1</dim>
				</port>
			</input>
			<output>
				<port id="2" precision="FP32" names="2160">
					<dim>1</dim>
					<dim>116</dim>
					<dim>20</dim>
					<dim>20</dim>
				</port>
			</output>
		</layer>
		<layer id="278" name="2164_compressed" type="Const" version="opset1">
			<data element_type="f16" shape="116, 116, 1, 1" offset="258182" size="26912"/>
			<output>
				<port id="0" precision="FP16">
					<dim>116</dim>
					<dim>116</dim>
					<dim>1</dim>
					<dim>1</dim>
				</port>
			</output>
		</layer>
		<layer id="279" name="2164" type="Convert" version="opset1">
			<data destination_type="f32"/>
			<rt_info>
				<attribute name="decompression" version="0"/>
				<attribute name="fused_names" version="0" value="2164"/>
			</rt_info>
			<input>
				<port id="0" precision="FP16">
					<dim>116</dim>
					<dim>116</dim>
					<dim>1</dim>
					<dim>1</dim>
				</port>
			</input>
			<output>
				<port id="1" precision="FP32" names="2164">
					<dim>116</dim>
					<dim>116</dim>
					<dim>1</dim>
					<dim>1</dim>
				</port>
			</output>
		</layer>
		<layer id="280" name="Convolution_2422" type="Convolution" version="opset1">
			<data strides="1, 1" dilations="1, 1" pads_begin="0, 0" pads_end="0, 0" auto_pad="explicit"/>
			<rt_info>
				<attribute name="fused_names" version="0" value="Convolution_2422"/>
			</rt_info>
			<input>
				<port id="0" precision="FP32">
					<dim>1</dim>
					<dim>116</dim>
					<dim>20</dim>
					<dim>20</dim>
				</port>
				<port id="1" precision="FP32">
					<dim>116</dim>
					<dim>116</dim>
					<dim>1</dim>
					<dim>1</dim>
				</port>
			</input>
			<output>
				<port id="2" precision="FP32">
					<dim>1</dim>
					<dim>116</dim>
					<dim>20</dim>
					<dim>20</dim>
				</port>
			</output>
		</layer>
		<layer id="281" name="Reshape_2442_compressed" type="Const" version="opset1">
			<data element_type="f16" shape="1, 116, 1, 1" offset="285094" size="232"/>
			<output>
				<port id="0" precision="FP16">
					<dim>1</dim>
					<dim>116</dim>
					<dim>1</dim>
					<dim>1</dim>
				</port>
			</output>
		</layer>
		<layer id="282" name="Reshape_2442" type="Convert" version="opset1">
			<data destination_type="f32"/>
			<rt_info>
				<attribute name="decompression" version="0"/>
			</rt_info>
			<input>
				<port id="0" precision="FP16">
					<dim>1</dim>
					<dim>116</dim>
					<dim>1</dim>
					<dim>1</dim>
				</port>
			</input>
			<output>
				<port id="1" precision="FP32">
					<dim>1</dim>
					<dim>116</dim>
					<dim>1</dim>
					<dim>1</dim>
				</port>
			</output>
		</layer>
		<layer id="283" name="2163" type="Add" version="opset1">
			<data auto_broadcast="numpy"/>
			<rt_info>
				<attribute name="fused_names" version="0" value="2163, Concat_2441, Constant_2425, Reshape_2442"/>
			</rt_info>
			<input>
				<port id="0" precision="FP32">
					<dim>1</dim>
					<dim>116</dim>
					<dim>20</dim>
					<dim>20</dim>
				</port>
				<port id="1" precision="FP32">
					<dim>1</dim>
					<dim>116</dim>
					<dim>1</dim>
					<dim>1</dim>
				</port>
			</input>
			<output>
				<port id="2" precision="FP32" names="2163">
					<dim>1</dim>
					<dim>116</dim>
					<dim>20</dim>
					<dim>20</dim>
				</port>
			</output>
		</layer>
		<layer id="284" name="Constant_2470_compressed" type="Const" version="opset1">
			<data element_type="f16" shape="1" offset="26944" size="2"/>
			<output>
				<port id="0" precision="FP16">
					<dim>1</dim>
				</port>
			</output>
		</layer>
		<layer id="285" name="Constant_2470" type="Convert" version="opset1">
			<data destination_type="f32"/>
			<rt_info>
				<attribute name="decompression" version="0"/>
				<attribute name="fused_names" version="0" value="Constant_2470"/>
			</rt_info>
			<input>
				<port id="0" precision="FP16">
					<dim>1</dim>
				</port>
			</input>
			<output>
				<port id="1" precision="FP32">
					<dim>1</dim>
				</port>
			</output>
		</layer>
		<layer id="286" name="1063" type="PReLU" version="opset1">
			<rt_info>
				<attribute name="fused_names" version="0" value="1063"/>
			</rt_info>
			<input>
				<port id="0" precision="FP32">
					<dim>1</dim>
					<dim>116</dim>
					<dim>20</dim>
					<dim>20</dim>
				</port>
				<port id="1" precision="FP32">
					<dim>1</dim>
				</port>
			</input>
			<output>
				<port id="2" precision="FP32" names="1063">
					<dim>1</dim>
					<dim>116</dim>
					<dim>20</dim>
					<dim>20</dim>
				</port>
			</output>
		</layer>
		<layer id="287" name="1064" type="Concat" version="opset1">
			<data axis="1"/>
			<rt_info>
				<attribute name="fused_names" version="0" value="1064"/>
			</rt_info>
			<input>
				<port id="0" precision="FP32">
					<dim>1</dim>
					<dim>116</dim>
					<dim>20</dim>
					<dim>20</dim>
				</port>
				<port id="1" precision="FP32">
					<dim>1</dim>
					<dim>116</dim>
					<dim>20</dim>
					<dim>20</dim>
				</port>
			</input>
			<output>
				<port id="2" precision="FP32" names="1064">
					<dim>1</dim>
					<dim>232</dim>
					<dim>20</dim>
					<dim>20</dim>
				</port>
			</output>
		</layer>
		<layer id="288" name="1066" type="Reshape" version="opset1">
			<data special_zero="true"/>
			<rt_info>
				<attribute name="fused_names" version="0" value="1066"/>
			</rt_info>
			<input>
				<port id="0" precision="FP32">
					<dim>1</dim>
					<dim>232</dim>
					<dim>20</dim>
					<dim>20</dim>
				</port>
				<port id="1" precision="I64">
					<dim>5</dim>
				</port>
			</input>
			<output>
				<port id="2" precision="FP32" names="1066">
					<dim>1</dim>
					<dim>2</dim>
					<dim>116</dim>
					<dim>20</dim>
					<dim>20</dim>
				</port>
			</output>
		</layer>
		<layer id="289" name="Constant_2476" type="Const" version="opset1">
			<data element_type="i64" shape="5" offset="41270" size="40"/>
			<rt_info>
				<attribute name="fused_names" version="0" value="Constant_2476"/>
			</rt_info>
			<output>
				<port id="0" precision="I64">
					<dim>5</dim>
				</port>
			</output>
		</layer>
		<layer id="290" name="1067" type="Transpose" version="opset1">
			<rt_info>
				<attribute name="fused_names" version="0" value="1067"/>
			</rt_info>
			<input>
				<port id="0" precision="FP32">
					<dim>1</dim>
					<dim>2</dim>
					<dim>116</dim>
					<dim>20</dim>
					<dim>20</dim>
				</port>
				<port id="1" precision="I64">
					<dim>5</dim>
				</port>
			</input>
			<output>
				<port id="2" precision="FP32" names="1067">
					<dim>1</dim>
					<dim>116</dim>
					<dim>2</dim>
					<dim>20</dim>
					<dim>20</dim>
				</port>
			</output>
		</layer>
		<layer id="291" name="1069" type="Reshape" version="opset1">
			<data special_zero="true"/>
			<rt_info>
				<attribute name="fused_names" version="0" value="1069"/>
			</rt_info>
			<input>
				<port id="0" precision="FP32">
					<dim>1</dim>
					<dim>116</dim>
					<dim>2</dim>
					<dim>20</dim>
					<dim>20</dim>
				</port>
				<port id="1" precision="I64">
					<dim>4</dim>
				</port>
			</input>
			<output>
				<port id="2" precision="FP32" names="1069">
					<dim>1</dim>
					<dim>232</dim>
					<dim>20</dim>
					<dim>20</dim>
				</port>
			</output>
		</layer>
		<layer id="292" name="Constant_28386" type="Const" version="opset1">
			<data element_type="i64" shape="2" offset="41342" size="16"/>
			<rt_info>
				<attribute name="fused_names" version="0" value="1080, Broadcast_2483, Constant_2481"/>
			</rt_info>
			<output>
				<port id="0" precision="I64">
					<dim>2</dim>
				</port>
			</output>
		</layer>
		<layer id="293" name="Constant_28389" type="Const" version="opset1">
			<data element_type="i64" shape="2" offset="41390" size="16"/>
			<rt_info>
				<attribute name="fused_names" version="0" value="1080, Broadcast_2483, Constant_2481"/>
			</rt_info>
			<output>
				<port id="0" precision="I64">
					<dim>2</dim>
				</port>
			</output>
		</layer>
		<layer id="294" name="Constant_28392" type="Const" version="opset1">
			<data element_type="i64" shape="2" offset="41374" size="16"/>
			<rt_info>
				<attribute name="fused_names" version="0" value="1080, Broadcast_2483, Constant_2481"/>
			</rt_info>
			<output>
				<port id="0" precision="I64">
					<dim>2</dim>
				</port>
			</output>
		</layer>
		<layer id="295" name="1080" type="StridedSlice" version="opset1">
			<data begin_mask="1, 0" end_mask="1, 0" new_axis_mask="" shrink_axis_mask="" ellipsis_mask=""/>
			<rt_info>
				<attribute name="fused_names" version="0" value="1080, Broadcast_2483, Constant_2481"/>
			</rt_info>
			<input>
				<port id="0" precision="FP32">
					<dim>1</dim>
					<dim>232</dim>
					<dim>20</dim>
					<dim>20</dim>
				</port>
				<port id="1" precision="I64">
					<dim>2</dim>
				</port>
				<port id="2" precision="I64">
					<dim>2</dim>
				</port>
				<port id="3" precision="I64">
					<dim>2</dim>
				</port>
			</input>
			<output>
				<port id="4" precision="FP32" names="1080">
					<dim>1</dim>
					<dim>116</dim>
					<dim>20</dim>
					<dim>20</dim>
				</port>
			</output>
		</layer>
		<layer id="296" name="Constant_28398" type="Const" version="opset1">
			<data element_type="i64" shape="2" offset="41390" size="16"/>
			<rt_info>
				<attribute name="fused_names" version="0" value="1083, Broadcast_2502, Constant_2500"/>
			</rt_info>
			<output>
				<port id="0" precision="I64">
					<dim>2</dim>
				</port>
			</output>
		</layer>
		<layer id="297" name="Constant_28401" type="Const" version="opset1">
			<data element_type="i64" shape="2" offset="172094" size="16"/>
			<rt_info>
				<attribute name="fused_names" version="0" value="1083, Broadcast_2502, Constant_2500"/>
			</rt_info>
			<output>
				<port id="0" precision="I64">
					<dim>2</dim>
				</port>
			</output>
		</layer>
		<layer id="298" name="Constant_28404" type="Const" version="opset1">
			<data element_type="i64" shape="2" offset="41374" size="16"/>
			<rt_info>
				<attribute name="fused_names" version="0" value="1083, Broadcast_2502, Constant_2500"/>
			</rt_info>
			<output>
				<port id="0" precision="I64">
					<dim>2</dim>
				</port>
			</output>
		</layer>
		<layer id="299" name="1083" type="StridedSlice" version="opset1">
			<data begin_mask="1, 0" end_mask="1, 0" new_axis_mask="" shrink_axis_mask="" ellipsis_mask=""/>
			<rt_info>
				<attribute name="fused_names" version="0" value="1083, Broadcast_2502, Constant_2500"/>
			</rt_info>
			<input>
				<port id="0" precision="FP32">
					<dim>1</dim>
					<dim>232</dim>
					<dim>20</dim>
					<dim>20</dim>
				</port>
				<port id="1" precision="I64">
					<dim>2</dim>
				</port>
				<port id="2" precision="I64">
					<dim>2</dim>
				</port>
				<port id="3" precision="I64">
					<dim>2</dim>
				</port>
			</input>
			<output>
				<port id="4" precision="FP32" names="1083">
					<dim>1</dim>
					<dim>116</dim>
					<dim>20</dim>
					<dim>20</dim>
				</port>
			</output>
		</layer>
		<layer id="300" name="2167_compressed" type="Const" version="opset1">
			<data element_type="f16" shape="116, 116, 1, 1" offset="285326" size="26912"/>
			<output>
				<port id="0" precision="FP16">
					<dim>116</dim>
					<dim>116</dim>
					<dim>1</dim>
					<dim>1</dim>
				</port>
			</output>
		</layer>
		<layer id="301" name="2167" type="Convert" version="opset1">
			<data destination_type="f32"/>
			<rt_info>
				<attribute name="decompression" version="0"/>
				<attribute name="fused_names" version="0" value="2167"/>
			</rt_info>
			<input>
				<port id="0" precision="FP16">
					<dim>116</dim>
					<dim>116</dim>
					<dim>1</dim>
					<dim>1</dim>
				</port>
			</input>
			<output>
				<port id="1" precision="FP32" names="2167">
					<dim>116</dim>
					<dim>116</dim>
					<dim>1</dim>
					<dim>1</dim>
				</port>
			</output>
		</layer>
		<layer id="302" name="Convolution_2519" type="Convolution" version="opset1">
			<data strides="1, 1" dilations="1, 1" pads_begin="0, 0" pads_end="0, 0" auto_pad="explicit"/>
			<rt_info>
				<attribute name="fused_names" version="0" value="Convolution_2519"/>
			</rt_info>
			<input>
				<port id="0" precision="FP32">
					<dim>1</dim>
					<dim>116</dim>
					<dim>20</dim>
					<dim>20</dim>
				</port>
				<port id="1" precision="FP32">
					<dim>116</dim>
					<dim>116</dim>
					<dim>1</dim>
					<dim>1</dim>
				</port>
			</input>
			<output>
				<port id="2" precision="FP32">
					<dim>1</dim>
					<dim>116</dim>
					<dim>20</dim>
					<dim>20</dim>
				</port>
			</output>
		</layer>
		<layer id="303" name="Reshape_2539_compressed" type="Const" version="opset1">
			<data element_type="f16" shape="1, 116, 1, 1" offset="312238" size="232"/>
			<output>
				<port id="0" precision="FP16">
					<dim>1</dim>
					<dim>116</dim>
					<dim>1</dim>
					<dim>1</dim>
				</port>
			</output>
		</layer>
		<layer id="304" name="Reshape_2539" type="Convert" version="opset1">
			<data destination_type="f32"/>
			<rt_info>
				<attribute name="decompression" version="0"/>
			</rt_info>
			<input>
				<port id="0" precision="FP16">
					<dim>1</dim>
					<dim>116</dim>
					<dim>1</dim>
					<dim>1</dim>
				</port>
			</input>
			<output>
				<port id="1" precision="FP32">
					<dim>1</dim>
					<dim>116</dim>
					<dim>1</dim>
					<dim>1</dim>
				</port>
			</output>
		</layer>
		<layer id="305" name="2166" type="Add" version="opset1">
			<data auto_broadcast="numpy"/>
			<rt_info>
				<attribute name="fused_names" version="0" value="2166, Concat_2538, Constant_2522, Reshape_2539"/>
			</rt_info>
			<input>
				<port id="0" precision="FP32">
					<dim>1</dim>
					<dim>116</dim>
					<dim>20</dim>
					<dim>20</dim>
				</port>
				<port id="1" precision="FP32">
					<dim>1</dim>
					<dim>116</dim>
					<dim>1</dim>
					<dim>1</dim>
				</port>
			</input>
			<output>
				<port id="2" precision="FP32" names="2166">
					<dim>1</dim>
					<dim>116</dim>
					<dim>20</dim>
					<dim>20</dim>
				</port>
			</output>
		</layer>
		<layer id="306" name="Constant_2567_compressed" type="Const" version="opset1">
			<data element_type="f16" shape="1" offset="26944" size="2"/>
			<output>
				<port id="0" precision="FP16">
					<dim>1</dim>
				</port>
			</output>
		</layer>
		<layer id="307" name="Constant_2567" type="Convert" version="opset1">
			<data destination_type="f32"/>
			<rt_info>
				<attribute name="decompression" version="0"/>
				<attribute name="fused_names" version="0" value="Constant_2567"/>
			</rt_info>
			<input>
				<port id="0" precision="FP16">
					<dim>1</dim>
				</port>
			</input>
			<output>
				<port id="1" precision="FP32">
					<dim>1</dim>
				</port>
			</output>
		</layer>
		<layer id="308" name="1086" type="PReLU" version="opset1">
			<rt_info>
				<attribute name="fused_names" version="0" value="1086"/>
			</rt_info>
			<input>
				<port id="0" precision="FP32">
					<dim>1</dim>
					<dim>116</dim>
					<dim>20</dim>
					<dim>20</dim>
				</port>
				<port id="1" precision="FP32">
					<dim>1</dim>
				</port>
			</input>
			<output>
				<port id="2" precision="FP32" names="1086">
					<dim>1</dim>
					<dim>116</dim>
					<dim>20</dim>
					<dim>20</dim>
				</port>
			</output>
		</layer>
		<layer id="309" name="Reshape_2576_compressed" type="Const" version="opset1">
			<data element_type="f16" shape="116, 1, 1, 3, 3" offset="312470" size="2088"/>
			<output>
				<port id="0" precision="FP16">
					<dim>116</dim>
					<dim>1</dim>
					<dim>1</dim>
					<dim>3</dim>
					<dim>3</dim>
				</port>
			</output>
		</layer>
		<layer id="310" name="Reshape_2576" type="Convert" version="opset1">
			<data destination_type="f32"/>
			<rt_info>
				<attribute name="decompression" version="0"/>
			</rt_info>
			<input>
				<port id="0" precision="FP16">
					<dim>116</dim>
					<dim>1</dim>
					<dim>1</dim>
					<dim>3</dim>
					<dim>3</dim>
				</port>
			</input>
			<output>
				<port id="1" precision="FP32">
					<dim>116</dim>
					<dim>1</dim>
					<dim>1</dim>
					<dim>3</dim>
					<dim>3</dim>
				</port>
			</output>
		</layer>
		<layer id="311" name="GroupConvolution_2642" type="GroupConvolution" version="opset1">
			<data strides="1, 1" pads_begin="1, 1" pads_end="1, 1" dilations="1, 1" auto_pad="explicit"/>
			<rt_info>
				<attribute name="fused_names" version="0" value="GroupConvolution_2642, Reshape_2576"/>
			</rt_info>
			<input>
				<port id="0" precision="FP32">
					<dim>1</dim>
					<dim>116</dim>
					<dim>20</dim>
					<dim>20</dim>
				</port>
				<port id="1" precision="FP32">
					<dim>116</dim>
					<dim>1</dim>
					<dim>1</dim>
					<dim>3</dim>
					<dim>3</dim>
				</port>
			</input>
…
		<edge from-layer="716" from-port="0" to-layer="717" to-port="0"/>
		<edge from-layer="717" from-port="1" to-layer="718" to-port="1"/>
		<edge from-layer="718" from-port="2" to-layer="719" to-port="1"/>
		<edge from-layer="719" from-port="2" to-layer="754" to-port="0"/>
		<edge from-layer="719" from-port="2" to-layer="722" to-port="0"/>
		<edge from-layer="720" from-port="0" to-layer="721" to-port="0"/>
		<edge from-layer="721" from-port="1" to-layer="722" to-port="1"/>
		<edge from-layer="722" from-port="2" to-layer="725" to-port="0"/>
		<edge from-layer="723" from-port="0" to-layer="724" to-port="0"/>
		<edge from-layer="724" from-port="1" to-layer="725" to-port="1"/>
		<edge from-layer="725" from-port="2" to-layer="728" to-port="0"/>
		<edge from-layer="726" from-port="0" to-layer="727" to-port="0"/>
		<edge from-layer="727" from-port="1" to-layer="728" to-port="1"/>
		<edge from-layer="728" from-port="2" to-layer="738" to-port="0"/>
		<edge from-layer="728" from-port="2" to-layer="731" to-port="0"/>
		<edge from-layer="729" from-port="0" to-layer="730" to-port="0"/>
		<edge from-layer="730" from-port="1" to-layer="731" to-port="1"/>
		<edge from-layer="731" from-port="2" to-layer="734" to-port="0"/>
		<edge from-layer="732" from-port="0" to-layer="733" to-port="0"/>
		<edge from-layer="733" from-port="1" to-layer="734" to-port="1"/>
		<edge from-layer="734" from-port="2" to-layer="737" to-port="0"/>
		<edge from-layer="735" from-port="0" to-layer="736" to-port="0"/>
		<edge from-layer="736" from-port="1" to-layer="737" to-port="1"/>
		<edge from-layer="737" from-port="2" to-layer="738" to-port="1"/>
		<edge from-layer="738" from-port="2" to-layer="741" to-port="0"/>
		<edge from-layer="739" from-port="0" to-layer="740" to-port="0"/>
		<edge from-layer="740" from-port="1" to-layer="741" to-port="1"/>
		<edge from-layer="741" from-port="2" to-layer="744" to-port="0"/>
		<edge from-layer="742" from-port="0" to-layer="743" to-port="0"/>
		<edge from-layer="743" from-port="1" to-layer="744" to-port="1"/>
		<edge from-layer="744" from-port="2" to-layer="747" to-port="0"/>
		<edge from-layer="744" from-port="2" to-layer="751" to-port="0"/>
		<edge from-layer="745" from-port="0" to-layer="746" to-port="0"/>
		<edge from-layer="746" from-port="1" to-layer="747" to-port="1"/>
		<edge from-layer="747" from-port="2" to-layer="750" to-port="0"/>
		<edge from-layer="748" from-port="0" to-layer="749" to-port="0"/>
		<edge from-layer="749" from-port="1" to-layer="750" to-port="1"/>
		<edge from-layer="750" from-port="2" to-layer="751" to-port="1"/>
		<edge from-layer="751" from-port="2" to-layer="764" to-port="0"/>
		<edge from-layer="752" from-port="0" to-layer="753" to-port="0"/>
		<edge from-layer="753" from-port="1" to-layer="754" to-port="1"/>
		<edge from-layer="754" from-port="2" to-layer="757" to-port="0"/>
		<edge from-layer="755" from-port="0" to-layer="756" to-port="0"/>
		<edge from-layer="756" from-port="1" to-layer="757" to-port="1"/>
		<edge from-layer="757" from-port="2" to-layer="760" to-port="0"/>
		<edge from-layer="758" from-port="0" to-layer="759" to-port="0"/>
		<edge from-layer="759" from-port="1" to-layer="760" to-port="1"/>
		<edge from-layer="760" from-port="2" to-layer="763" to-port="0"/>
		<edge from-layer="761" from-port="0" to-layer="762" to-port="0"/>
		<edge from-layer="762" from-port="1" to-layer="763" to-port="1"/>
		<edge from-layer="763" from-port="2" to-layer="764" to-port="1"/>
		<edge from-layer="764" from-port="2" to-layer="767" to-port="0"/>
		<edge from-layer="764" from-port="2" to-layer="816" to-port="0"/>
		<edge from-layer="765" from-port="0" to-layer="766" to-port="0"/>
		<edge from-layer="766" from-port="1" to-layer="767" to-port="1"/>
		<edge from-layer="767" from-port="2" to-layer="770" to-port="0"/>
		<edge from-layer="768" from-port="0" to-layer="769" to-port="0"/>
		<edge from-layer="769" from-port="1" to-layer="770" to-port="1"/>
		<edge from-layer="770" from-port="2" to-layer="773" to-port="0"/>
		<edge from-layer="771" from-port="0" to-layer="772" to-port="0"/>
		<edge from-layer="772" from-port="1" to-layer="773" to-port="1"/>
		<edge from-layer="773" from-port="2" to-layer="776" to-port="0"/>
		<edge from-layer="774" from-port="0" to-layer="775" to-port="0"/>
		<edge from-layer="775" from-port="1" to-layer="776" to-port="1"/>
		<edge from-layer="776" from-port="2" to-layer="779" to-port="0"/>
		<edge from-layer="777" from-port="0" to-layer="778" to-port="0"/>
		<edge from-layer="778" from-port="1" to-layer="779" to-port="1"/>
		<edge from-layer="779" from-port="2" to-layer="782" to-port="0"/>
		<edge from-layer="780" from-port="0" to-layer="781" to-port="0"/>
		<edge from-layer="781" from-port="1" to-layer="782" to-port="1"/>
		<edge from-layer="782" from-port="2" to-layer="785" to-port="0"/>
		<edge from-layer="783" from-port="0" to-layer="784" to-port="0"/>
		<edge from-layer="784" from-port="1" to-layer="785" to-port="1"/>
		<edge from-layer="785" from-port="2" to-layer="788" to-port="0"/>
		<edge from-layer="786" from-port="0" to-layer="787" to-port="0"/>
		<edge from-layer="787" from-port="1" to-layer="788" to-port="1"/>
		<edge from-layer="788" from-port="2" to-layer="791" to-port="0"/>
		<edge from-layer="789" from-port="0" to-layer="790" to-port="0"/>
		<edge from-layer="790" from-port="1" to-layer="791" to-port="1"/>
		<edge from-layer="791" from-port="2" to-layer="794" to-port="0"/>
		<edge from-layer="792" from-port="0" to-layer="793" to-port="0"/>
		<edge from-layer="793" from-port="1" to-layer="794" to-port="1"/>
		<edge from-layer="794" from-port="2" to-layer="797" to-port="0"/>
		<edge from-layer="795" from-port="0" to-layer="796" to-port="0"/>
		<edge from-layer="796" from-port="1" to-layer="797" to-port="1"/>
		<edge from-layer="797" from-port="2" to-layer="800" to-port="0"/>
		<edge from-layer="798" from-port="0" to-layer="799" to-port="0"/>
		<edge from-layer="799" from-port="1" to-layer="800" to-port="1"/>
		<edge from-layer="800" from-port="2" to-layer="803" to-port="0"/>
		<edge from-layer="801" from-port="0" to-layer="802" to-port="0"/>
		<edge from-layer="802" from-port="1" to-layer="803" to-port="1"/>
		<edge from-layer="803" from-port="2" to-layer="806" to-port="0"/>
		<edge from-layer="804" from-port="0" to-layer="805" to-port="0"/>
		<edge from-layer="805" from-port="1" to-layer="806" to-port="1"/>
		<edge from-layer="806" from-port="2" to-layer="809" to-port="0"/>
		<edge from-layer="807" from-port="0" to-layer="809" to-port="1"/>
		<edge from-layer="808" from-port="0" to-layer="809" to-port="2"/>
		<edge from-layer="809" from-port="3" to-layer="810" to-port="0"/>
		<edge from-layer="809" from-port="4" to-layer="811" to-port="1"/>
		<edge from-layer="810" from-port="1" to-layer="811" to-port="0"/>
		<edge from-layer="811" from-port="2" to-layer="813" to-port="0"/>
		<edge from-layer="812" from-port="0" to-layer="813" to-port="1"/>
		<edge from-layer="812" from-port="0" to-layer="1037" to-port="1"/>
		<edge from-layer="812" from-port="0" to-layer="925" to-port="1"/>
		<edge from-layer="812" from-port="0" to-layer="1122" to-port="1"/>
		<edge from-layer="813" from-port="2" to-layer="1123" to-port="0"/>
		<edge from-layer="814" from-port="0" to-layer="815" to-port="0"/>
		<edge from-layer="815" from-port="1" to-layer="816" to-port="1"/>
		<edge from-layer="816" from-port="2" to-layer="819" to-port="0"/>
		<edge from-layer="817" from-port="0" to-layer="818" to-port="0"/>
		<edge from-layer="818" from-port="1" to-layer="819" to-port="1"/>
		<edge from-layer="819" from-port="2" to-layer="822" to-port="0"/>
		<edge from-layer="820" from-port="0" to-layer="821" to-port="0"/>
		<edge from-layer="821" from-port="1" to-layer="822" to-port="1"/>
		<edge from-layer="822" from-port="2" to-layer="825" to-port="0"/>
		<edge from-layer="823" from-port="0" to-layer="824" to-port="0"/>
		<edge from-layer="824" from-port="1" to-layer="825" to-port="1"/>
		<edge from-layer="825" from-port="2" to-layer="828" to-port="0"/>
		<edge from-layer="826" from-port="0" to-layer="827" to-port="0"/>
		<edge from-layer="827" from-port="1" to-layer="828" to-port="1"/>
		<edge from-layer="828" from-port="2" to-layer="831" to-port="0"/>
		<edge from-layer="829" from-port="0" to-layer="830" to-port="0"/>
		<edge from-layer="830" from-port="1" to-layer="831" to-port="1"/>
		<edge from-layer="831" from-port="2" to-layer="832" to-port="0"/>
		<edge from-layer="832" from-port="2" to-layer="867" to-port="0"/>
		<edge from-layer="832" from-port="2" to-layer="835" to-port="0"/>
		<edge from-layer="833" from-port="0" to-layer="834" to-port="0"/>
		<edge from-layer="834" from-port="1" to-layer="835" to-port="1"/>
		<edge from-layer="835" from-port="2" to-layer="838" to-port="0"/>
		<edge from-layer="836" from-port="0" to-layer="837" to-port="0"/>
		<edge from-layer="837" from-port="1" to-layer="838" to-port="1"/>
		<edge from-layer="838" from-port="2" to-layer="841" to-port="0"/>
		<edge from-layer="839" from-port="0" to-layer="840" to-port="0"/>
		<edge from-layer="840" from-port="1" to-layer="841" to-port="1"/>
		<edge from-layer="841" from-port="2" to-layer="844" to-port="0"/>
		<edge from-layer="841" from-port="2" to-layer="851" to-port="0"/>
		<edge from-layer="842" from-port="0" to-layer="843" to-port="0"/>
		<edge from-layer="843" from-port="1" to-layer="844" to-port="1"/>
		<edge from-layer="844" from-port="2" to-layer="847" to-port="0"/>
		<edge from-layer="845" from-port="0" to-layer="846" to-port="0"/>
		<edge from-layer="846" from-port="1" to-layer="847" to-port="1"/>
		<edge from-layer="847" from-port="2" to-layer="850" to-port="0"/>
		<edge from-layer="848" from-port="0" to-layer="849" to-port="0"/>
		<edge from-layer="849" from-port="1" to-layer="850" to-port="1"/>
		<edge from-layer="850" from-port="2" to-layer="851" to-port="1"/>
		<edge from-layer="851" from-port="2" to-layer="854" to-port="0"/>
		<edge from-layer="852" from-port="0" to-layer="853" to-port="0"/>
		<edge from-layer="853" from-port="1" to-layer="854" to-port="1"/>
		<edge from-layer="854" from-port="2" to-layer="857" to-port="0"/>
		<edge from-layer="855" from-port="0" to-layer="856" to-port="0"/>
		<edge from-layer="856" from-port="1" to-layer="857" to-port="1"/>
		<edge from-layer="857" from-port="2" to-layer="860" to-port="0"/>
		<edge from-layer="857" from-port="2" to-layer="864" to-port="0"/>
		<edge from-layer="858" from-port="0" to-layer="859" to-port="0"/>
		<edge from-layer="859" from-port="1" to-layer="860" to-port="1"/>
		<edge from-layer="860" from-port="2" to-layer="863" to-port="0"/>
		<edge from-layer="861" from-port="0" to-layer="862" to-port="0"/>
		<edge from-layer="862" from-port="1" to-layer="863" to-port="1"/>
		<edge from-layer="863" from-port="2" to-layer="864" to-port="1"/>
		<edge from-layer="864" from-port="2" to-layer="877" to-port="0"/>
		<edge from-layer="865" from-port="0" to-layer="866" to-port="0"/>
		<edge from-layer="866" from-port="1" to-layer="867" to-port="1"/>
		<edge from-layer="867" from-port="2" to-layer="870" to-port="0"/>
		<edge from-layer="868" from-port="0" to-layer="869" to-port="0"/>
		<edge from-layer="869" from-port="1" to-layer="870" to-port="1"/>
		<edge from-layer="870" from-port="2" to-layer="873" to-port="0"/>
		<edge from-layer="871" from-port="0" to-layer="872" to-port="0"/>
		<edge from-layer="872" from-port="1" to-layer="873" to-port="1"/>
		<edge from-layer="873" from-port="2" to-layer="876" to-port="0"/>
		<edge from-layer="874" from-port="0" to-layer="875" to-port="0"/>
		<edge from-layer="875" from-port="1" to-layer="876" to-port="1"/>
		<edge from-layer="876" from-port="2" to-layer="877" to-port="1"/>
		<edge from-layer="877" from-port="2" to-layer="928" to-port="0"/>
		<edge from-layer="877" from-port="2" to-layer="880" to-port="0"/>
		<edge from-layer="878" from-port="0" to-layer="879" to-port="0"/>
		<edge from-layer="879" from-port="1" to-layer="880" to-port="1"/>
		<edge from-layer="880" from-port="2" to-layer="883" to-port="0"/>
		<edge from-layer="881" from-port="0" to-layer="882" to-port="0"/>
		<edge from-layer="882" from-port="1" to-layer="883" to-port="1"/>
		<edge from-layer="883" from-port="2" to-layer="886" to-port="0"/>
		<edge from-layer="884" from-port="0" to-layer="885" to-port="0"/>
		<edge from-layer="885" from-port="1" to-layer="886" to-port="1"/>
		<edge from-layer="886" from-port="2" to-layer="889" to-port="0"/>
		<edge from-layer="887" from-port="0" to-layer="888" to-port="0"/>
		<edge from-layer="888" from-port="1" to-layer="889" to-port="1"/>
		<edge from-layer="889" from-port="2" to-layer="892" to-port="0"/>
		<edge from-layer="890" from-port="0" to-layer="891" to-port="0"/>
		<edge from-layer="891" from-port="1" to-layer="892" to-port="1"/>
		<edge from-layer="892" from-port="2" to-layer="895" to-port="0"/>
		<edge from-layer="893" from-port="0" to-layer="894" to-port="0"/>
		<edge from-layer="894" from-port="1" to-layer="895" to-port="1"/>
		<edge from-layer="895" from-port="2" to-layer="898" to-port="0"/>
		<edge from-layer="896" from-port="0" to-layer="897" to-port="0"/>
		<edge from-layer="897" from-port="1" to-layer="898" to-port="1"/>
		<edge from-layer="898" from-port="2" to-layer="901" to-port="0"/>
		<edge from-layer="899" from-port="0" to-layer="900" to-port="0"/>
		<edge from-layer="900" from-port="1" to-layer="901" to-port="1"/>
		<edge from-layer="901" from-port="2" to-layer="904" to-port="0"/>
		<edge from-layer="902" from-port="0" to-layer="903" to-port="0"/>
		<edge from-layer="903" from-port="1" to-layer="904" to-port="1"/>
		<edge from-layer="904" from-port="2" to-layer="907" to-port="0"/>
		<edge from-layer="905" from-port="0" to-layer="906" to-port="0"/>
		<edge from-layer="906" from-port="1" to-layer="907" to-port="1"/>
		<edge from-layer="907" from-port="2" to-layer="910" to-port="0"/>
		<edge from-layer="908" from-port="0" to-layer="909" to-port="0"/>
		<edge from-layer="909" from-port="1" to-layer="910" to-port="1"/>
		<edge from-layer="910" from-port="2" to-layer="913" to-port="0"/>
		<edge from-layer="911" from-port="0" to-layer="912" to-port="0"/>
		<edge from-layer="912" from-port="1" to-layer="913" to-port="1"/>
		<edge from-layer="913" from-port="2" to-layer="916" to-port="0"/>
		<edge from-layer="914" from-port="0" to-layer="915" to-port="0"/>
		<edge from-layer="915" from-port="1" to-layer="916" to-port="1"/>
		<edge from-layer="916" from-port="2" to-layer="919" to-port="0"/>
		<edge from-layer="917" from-port="0" to-layer="918" to-port="0"/>
		<edge from-layer="918" from-port="1" to-layer="919" to-port="1"/>
		<edge from-layer="919" from-port="2" to-layer="922" to-port="0"/>
		<edge from-layer="920" from-port="0" to-layer="922" to-port="1"/>
		<edge from-layer="921" from-port="0" to-layer="922" to-port="2"/>
		<edge from-layer="922" from-port="3" to-layer="923" to-port="0"/>
		<edge from-layer="922" from-port="4" to-layer="924" to-port="1"/>
		<edge from-layer="923" from-port="1" to-layer="924" to-port="0"/>
		<edge from-layer="924" from-port="2" to-layer="925" to-port="0"/>
		<edge from-layer="925" from-port="2" to-layer="1123" to-port="1"/>
		<edge from-layer="926" from-port="0" to-layer="927" to-port="0"/>
		<edge from-layer="927" from-port="1" to-layer="928" to-port="1"/>
		<edge from-layer="928" from-port="2" to-layer="931" to-port="0"/>
		<edge from-layer="929" from-port="0" to-layer="930" to-port="0"/>
		<edge from-layer="930" from-port="1" to-layer="931" to-port="1"/>
		<edge from-layer="931" from-port="2" to-layer="934" to-port="0"/>
		<edge from-layer="932" from-port="0" to-layer="933" to-port="0"/>
		<edge from-layer="933" from-port="1" to-layer="934" to-port="1"/>
		<edge from-layer="934" from-port="2" to-layer="937" to-port="0"/>
		<edge from-layer="935" from-port="0" to-layer="936" to-port="0"/>
		<edge from-layer="936" from-port="1" to-layer="937" to-port="1"/>
		<edge from-layer="937" from-port="2" to-layer="940" to-port="0"/>
		<edge from-layer="938" from-port="0" to-layer="939" to-port="0"/>
		<edge from-layer="939" from-port="1" to-layer="940" to-port="1"/>
		<edge from-layer="940" from-port="2" to-layer="943" to-port="0"/>
		<edge from-layer="941" from-port="0" to-layer="942" to-port="0"/>
		<edge from-layer="942" from-port="1" to-layer="943" to-port="1"/>
		<edge from-layer="943" from-port="2" to-layer="944" to-port="0"/>
		<edge from-layer="944" from-port="2" to-layer="947" to-port="0"/>
		<edge from-layer="944" from-port="2" to-layer="979" to-port="0"/>
		<edge from-layer="945" from-port="0" to-layer="946" to-port="0"/>
		<edge from-layer="946" from-port="1" to-layer="947" to-port="1"/>
		<edge from-layer="947" from-port="2" to-layer="950" to-port="0"/>
		<edge from-layer="948" from-port="0" to-layer="949" to-port="0"/>
		<edge from-layer="949" from-port="1" to-layer="950" to-port="1"/>
		<edge from-layer="950" from-port="2" to-layer="953" to-port="0"/>
		<edge from-layer="951" from-port="0" to-layer="952" to-port="0"/>
		<edge from-layer="952" from-port="1" to-layer="953" to-port="1"/>
		<edge from-layer="953" from-port="2" to-layer="956" to-port="0"/>
		<edge from-layer="953" from-port="2" to-layer="963" to-port="0"/>
		<edge from-layer="954" from-port="0" to-layer="955" to-port="0"/>
		<edge from-layer="955" from-port="1" to-layer="956" to-port="1"/>
		<edge from-layer="956" from-port="2" to-layer="959" to-port="0"/>
		<edge from-layer="957" from-port="0" to-layer="958" to-port="0"/>
		<edge from-layer="958" from-port="1" to-layer="959" to-port="1"/>
		<edge from-layer="959" from-port="2" to-layer="962" to-port="0"/>
		<edge from-layer="960" from-port="0" to-layer="961" to-port="0"/>
		<edge from-layer="961" from-port="1" to-layer="962" to-port="1"/>
		<edge from-layer="962" from-port="2" to-layer="963" to-port="1"/>
		<edge from-layer="963" from-port="2" to-layer="966" to-port="0"/>
		<edge from-layer="964" from-port="0" to-layer="965" to-port="0"/>
		<edge from-layer="965" from-port="1" to-layer="966" to-port="1"/>
		<edge from-layer="966" from-port="2" to-layer="969" to-port="0"/>
		<edge from-layer="967" from-port="0" to-layer="968" to-port="0"/>
		<edge from-layer="968" from-port="1" to-layer="969" to-port="1"/>
		<edge from-layer="969" from-port="2" to-layer="972" to-port="0"/>
		<edge from-layer="969" from-port="2" to-layer="976" to-port="0"/>
		<edge from-layer="970" from-port="0" to-layer="971" to-port="0"/>
		<edge from-layer="971" from-port="1" to-layer="972" to-port="1"/>
		<edge from-layer="972" from-port="2" to-layer="975" to-port="0"/>
		<edge from-layer="973" from-port="0" to-layer="974" to-port="0"/>
		<edge from-layer="974" from-port="1" to-layer="975" to-port="1"/>
		<edge from-layer="975" from-port="2" to-layer="976" to-port="1"/>
		<edge from-layer="976" from-port="2" to-layer="989" to-port="0"/>
		<edge from-layer="977" from-port="0" to-layer="978" to-port="0"/>
		<edge from-layer="978" from-port="1" to-layer="979" to-port="1"/>
		<edge from-layer="979" from-port="2" to-layer="982" to-port="0"/>
		<edge from-layer="980" from-port="0" to-layer="981" to-port="0"/>
		<edge from-layer="981" from-port="1" to-layer="982" to-port="1"/>
		<edge from-layer="982" from-port="2" to-layer="985" to-port="0"/>
		<edge from-layer="983" from-port="0" to-layer="984" to-port="0"/>
		<edge from-layer="984" from-port="1" to-layer="985" to-port="1"/>
		<edge from-layer="985" from-port="2" to-layer="988" to-port="0"/>
		<edge from-layer="986" from-port="0" to-layer="987" to-port="0"/>
		<edge from-layer="987" from-port="1" to-layer="988" to-port="1"/>
		<edge from-layer="988" from-port="2" to-layer="989" to-port="1"/>
		<edge from-layer="989" from-port="2" to-layer="992" to-port="0"/>
		<edge from-layer="989" from-port="2" to-layer="1058" to-port="0"/>
		<edge from-layer="990" from-port="0" to-layer="991" to-port="0"/>
		<edge from-layer="991" from-port="1" to-layer="992" to-port="1"/>
		<edge from-layer="992" from-port="2" to-layer="995" to-port="0"/>
		<edge from-layer="993" from-port="0" to-layer="994" to-port="0"/>
		<edge from-layer="994" from-port="1" to-layer="995" to-port="1"/>
		<edge from-layer="995" from-port="2" to-layer="998" to-port="0"/>
		<edge from-layer="996" from-port="0" to-layer="997" to-port="0"/>
		<edge from-layer="997" from-port="1" to-layer="998" to-port="1"/>
		<edge from-layer="998" from-port="2" to-layer="1001" to-port="0"/>
		<edge from-layer="999" from-port="0" to-layer="1000" to-port="0"/>
		<edge from-layer="1000" from-port="1" to-layer="1001" to-port="1"/>
		<edge from-layer="1001" from-port="2" to-layer="1004" to-port="0"/>
		<edge from-layer="1002" from-port="0" to-layer="1003" to-port="0"/>
		<edge from-layer="1003" from-port="1" to-layer="1004" to-port="1"/>
		<edge from-layer="1004" from-port="2" to-layer="1007" to-port="0"/>
		<edge from-layer="1005" from-port="0" to-layer="1006" to-port="0"/>
		<edge from-layer="1006" from-port="1" to-layer="1007" to-port="1"/>
		<edge from-layer="1007" from-port="2" to-layer="1010" to-port="0"/>
		<edge from-layer="1008" from-port="0" to-layer="1009" to-port="0"/>
		<edge from-layer="1009" from-port="1" to-layer="1010" to-port="1"/>
		<edge from-layer="1010" from-port="2" to-layer="1013" to-port="0"/>
		<edge from-layer="1011" from-port="0" to-layer="1012" to-port="0"/>
		<edge from-layer="1012" from-port="1" to-layer="1013" to-port="1"/>
		<edge from-layer="1013" from-port="2" to-layer="1016" to-port="0"/>
		<edge from-layer="1014" from-port="0" to-layer="1015" to-port="0"/>
		<edge from-layer="1015" from-port="1" to-layer="1016" to-port="1"/>
		<edge from-layer="1016" from-port="2" to-layer="1019" to-port="0"/>
		<edge from-layer="1017" from-port="0" to-layer="1018" to-port="0"/>
		<edge from-layer="1018" from-port="1" to-layer="1019" to-port="1"/>
		<edge from-layer="1019" from-port="2" to-layer="1022" to-port="0"/>
		<edge from-layer="1020" from-port="0" to-layer="1021" to-port="0"/>
		<edge from-layer="1021" from-port="1" to-layer="1022" to-port="1"/>
		<edge from-layer="1022" from-port="2" to-layer="1025" to-port="0"/>
		<edge from-layer="1023" from-port="0" to-layer="1024" to-port="0"/>
		<edge from-layer="1024" from-port="1" to-layer="1025" to-port="1"/>
		<edge from-layer="1025" from-port="2" to-layer="1028" to-port="0"/>
		<edge from-layer="1026" from-port="0" to-layer="1027" to-port="0"/>
		<edge from-layer="1027" from-port="1" to-layer="1028" to-port="1"/>
		<edge from-layer="1028" from-port="2" to-layer="1031" to-port="0"/>
		<edge from-layer="1029" from-port="0" to-layer="1030" to-port="0"/>
		<edge from-layer="1030" from-port="1" to-layer="1031" to-port="1"/>
		<edge from-layer="1031" from-port="2" to-layer="1034" to-port="0"/>
		<edge from-layer="1032" from-port="0" to-layer="1034" to-port="1"/>
		<edge from-layer="1033" from-port="0" to-layer="1034" to-port="2"/>
		<edge from-layer="1034" from-port="4" to-layer="1036" to-port="1"/>
		<edge from-layer="1034" from-port="3" to-layer="1035" to-port="0"/>
		<edge from-layer="1035" from-port="1" to-layer="1036" to-port="0"/>
		<edge from-layer="1036" from-port="2" to-layer="1037" to-port="0"/>
		<edge from-layer="1037" from-port="2" to-layer="1123" to-port="2"/>
		<edge from-layer="1038" from-port="0" to-layer="1039" to-port="0"/>
		<edge from-layer="1039" from-port="1" to-layer="1040" to-port="1"/>
		<edge from-layer="1040" from-port="2" to-layer="1043" to-port="0"/>
		<edge from-layer="1041" from-port="0" to-layer="1042" to-port="0"/>
		<edge from-layer="1042" from-port="1" to-layer="1043" to-port="1"/>
		<edge from-layer="1043" from-port="2" to-layer="1046" to-port="0"/>
		<edge from-layer="1044" from-port="0" to-layer="1045" to-port="0"/>
		<edge from-layer="1045" from-port="1" to-layer="1046" to-port="1"/>
		<edge from-layer="1046" from-port="2" to-layer="1049" to-port="0"/>
		<edge from-layer="1047" from-port="0" to-layer="1048" to-port="0"/>
		<edge from-layer="1048" from-port="1" to-layer="1049" to-port="1"/>
		<edge from-layer="1049" from-port="2" to-layer="1052" to-port="0"/>
		<edge from-layer="1050" from-port="0" to-layer="1051" to-port="0"/>
		<edge from-layer="1051" from-port="1" to-layer="1052" to-port="1"/>
		<edge from-layer="1052" from-port="2" to-layer="1055" to-port="0"/>
		<edge from-layer="1053" from-port="0" to-layer="1054" to-port="0"/>
		<edge from-layer="1054" from-port="1" to-layer="1055" to-port="1"/>
		<edge from-layer="1055" from-port="2" to-layer="1074" to-port="0"/>
		<edge from-layer="1056" from-port="0" to-layer="1057" to-port="0"/>
		<edge from-layer="1057" from-port="1" to-layer="1058" to-port="1"/>
		<edge from-layer="1058" from-port="2" to-layer="1061" to-port="0"/>
		<edge from-layer="1059" from-port="0" to-layer="1060" to-port="0"/>
		<edge from-layer="1060" from-port="1" to-layer="1061" to-port="1"/>
		<edge from-layer="1061" from-port="2" to-layer="1064" to-port="0"/>
		<edge from-layer="1062" from-port="0" to-layer="1063" to-port="0"/>
		<edge from-layer="1063" from-port="1" to-layer="1064" to-port="1"/>
		<edge from-layer="1064" from-port="2" to-layer="1067" to-port="0"/>
		<edge from-layer="1065" from-port="0" to-layer="1066" to-port="0"/>
		<edge from-layer="1066" from-port="1" to-layer="1067" to-port="1"/>
		<edge from-layer="1067" from-port="2" to-layer="1070" to-port="0"/>
		<edge from-layer="1068" from-port="0" to-layer="1069" to-port="0"/>
		<edge from-layer="1069" from-port="1" to-layer="1070" to-port="1"/>
		<edge from-layer="1070" from-port="2" to-layer="1073" to-port="0"/>
		<edge from-layer="1071" from-port="0" to-layer="1072" to-port="0"/>
		<edge from-layer="1072" from-port="1" to-layer="1073" to-port="1"/>
		<edge from-layer="1073" from-port="2" to-layer="1074" to-port="1"/>
		<edge from-layer="1074" from-port="2" to-layer="1077" to-port="0"/>
		<edge from-layer="1075" from-port="0" to-layer="1076" to-port="0"/>
		<edge from-layer="1076" from-port="1" to-layer="1077" to-port="1"/>
		<edge from-layer="1077" from-port="2" to-layer="1080" to-port="0"/>
		<edge from-layer="1078" from-port="0" to-layer="1079" to-port="0"/>
		<edge from-layer="1079" from-port="1" to-layer="1080" to-port="1"/>
		<edge from-layer="1080" from-port="2" to-layer="1083" to-port="0"/>
		<edge from-layer="1081" from-port="0" to-layer="1082" to-port="0"/>
		<edge from-layer="1082" from-port="1" to-layer="1083" to-port="1"/>
		<edge from-layer="1083" from-port="2" to-layer="1086" to-port="0"/>
		<edge from-layer="1084" from-port="0" to-layer="1085" to-port="0"/>
		<edge from-layer="1085" from-port="1" to-layer="1086" to-port="1"/>
		<edge from-layer="1086" from-port="2" to-layer="1089" to-port="0"/>
		<edge from-layer="1087" from-port="0" to-layer="1088" to-port="0"/>
		<edge from-layer="1088" from-port="1" to-layer="1089" to-port="1"/>
		<edge from-layer="1089" from-port="2" to-layer="1092" to-port="0"/>
		<edge from-layer="1090" from-port="0" to-layer="1091" to-port="0"/>
		<edge from-layer="1091" from-port="1" to-layer="1092" to-port="1"/>
		<edge from-layer="1092" from-port="2" to-layer="1095" to-port="0"/>
		<edge from-layer="1093" from-port="0" to-layer="1094" to-port="0"/>
		<edge from-layer="1094" from-port="1" to-layer="1095" to-port="1"/>
		<edge from-layer="1095" from-port="2" to-layer="1098" to-port="0"/>
		<edge from-layer="1096" from-port="0" to-layer="1097" to-port="0"/>
		<edge from-layer="1097" from-port="1" to-layer="1098" to-port="1"/>
		<edge from-layer="1098" from-port="2" to-layer="1101" to-port="0"/>
		<edge from-layer="1099" from-port="0" to-layer="1100" to-port="0"/>
		<edge from-layer="1100" from-port="1" to-layer="1101" to-port="1"/>
		<edge from-layer="1101" from-port="2" to-layer="1104" to-port="0"/>
		<edge from-layer="1102" from-port="0" to-layer="1103" to-port="0"/>
		<edge from-layer="1103" from-port="1" to-layer="1104" to-port="1"/>
		<edge from-layer="1104" from-port="2" to-layer="1107" to-port="0"/>
		<edge from-layer="1105" from-port="0" to-layer="1106" to-port="0"/>
		<edge from-layer="1106" from-port="1" to-layer="1107" to-port="1"/>
		<edge from-layer="1107" from-port="2" to-layer="1110" to-port="0"/>
		<edge from-layer="1108" from-port="0" to-layer="1109" to-port="0"/>
		<edge from-layer="1109" from-port="1" to-layer="1110" to-port="1"/>
		<edge from-layer="1110" from-port="2" to-layer="1113" to-port="0"/>
		<edge from-layer="1111" from-port="0" to-layer="1112" to-port="0"/>
		<edge from-layer="1112" from-port="1" to-layer="1113" to-port="1"/>
		<edge from-layer="1113" from-port="2" to-layer="1116" to-port="0"/>
		<edge from-layer="1114" from-port="0" to-layer="1115" to-port="0"/>
		<edge from-layer="1115" from-port="1" to-layer="1116" to-port="1"/>
		<edge from-layer="1116" from-port="2" to-layer="1119" to-port="0"/>
		<edge from-layer="1117" from-port="0" to-layer="1119" to-port="1"/>
		<edge from-layer="1118" from-port="0" to-layer="1119" to-port="2"/>
		<edge from-layer="1119" from-port="3" to-layer="1120" to-port="0"/>
		<edge from-layer="1119" from-port="4" to-layer="1121" to-port="1"/>
		<edge from-layer="1120" from-port="1" to-layer="1121" to-port="0"/>
		<edge from-layer="1121" from-port="2" to-layer="1122" to-port="0"/>
		<edge from-layer="1122" from-port="2" to-layer="1123" to-port="3"/>
		<edge from-layer="1123" from-port="4" to-layer="1125" to-port="0"/>
		<edge from-layer="1124" from-port="0" to-layer="1125" to-port="1"/>
		<edge from-layer="1125" from-port="2" to-layer="1127" to-port="0"/>
		<edge from-layer="1126" from-port="0" to-layer="1127" to-port="1"/>
		<edge from-layer="1127" from-port="2" to-layer="1131" to-port="0"/>
		<edge from-layer="1127" from-port="2" to-layer="1331" to-port="0"/>
		<edge from-layer="1128" from-port="0" to-layer="1131" to-port="1"/>
		<edge from-layer="1129" from-port="0" to-layer="1131" to-port="2"/>
		<edge from-layer="1130" from-port="0" to-layer="1131" to-port="3"/>
		<edge from-layer="1131" from-port="4" to-layer="1135" to-port="0"/>
		<edge from-layer="1131" from-port="4" to-layer="1139" to-port="0"/>
		<edge from-layer="1131" from-port="4" to-layer="1143" to-port="0"/>
		<edge from-layer="1131" from-port="4" to-layer="1147" to-port="0"/>
		<edge from-layer="1132" from-port="0" to-layer="1135" to-port="1"/>
		<edge from-layer="1133" from-port="0" to-layer="1135" to-port="2"/>
		<edge from-layer="1134" from-port="0" to-layer="1135" to-port="3"/>
		<edge from-layer="1135" from-port="4" to-layer="1148" to-port="0"/>
		<edge from-layer="1136" from-port="0" to-layer="1139" to-port="1"/>
		<edge from-layer="1137" from-port="0" to-layer="1139" to-port="2"/>
		<edge from-layer="1138" from-port="0" to-layer="1139" to-port="3"/>
		<edge from-layer="1139" from-port="4" to-layer="1148" to-port="1"/>
		<edge from-layer="1140" from-port="0" to-layer="1143" to-port="1"/>
		<edge from-layer="1141" from-port="0" to-layer="1143" to-port="2"/>
		<edge from-layer="1142" from-port="0" to-layer="1143" to-port="3"/>
		<edge from-layer="1143" from-port="4" to-layer="1148" to-port="2"/>
		<edge from-layer="1144" from-port="0" to-layer="1147" to-port="1"/>
		<edge from-layer="1145" from-port="0" to-layer="1147" to-port="2"/>
		<edge from-layer="1146" from-port="0" to-layer="1147" to-port="3"/>
		<edge from-layer="1147" from-port="4" to-layer="1148" to-port="3"/>
		<edge from-layer="1148" from-port="4" to-layer="1149" to-port="0"/>
		<edge from-layer="1149" from-port="1" to-layer="1156" to-port="0"/>
		<edge from-layer="1149" from-port="1" to-layer="1159" to-port="0"/>
		<edge from-layer="1149" from-port="1" to-layer="1162" to-port="0"/>
		<edge from-layer="1149" from-port="1" to-layer="1153" to-port="0"/>
		<edge from-layer="1150" from-port="0" to-layer="1190" to-port="1"/>
		<edge from-layer="1150" from-port="0" to-layer="1153" to-port="1"/>
		<edge from-layer="1150" from-port="0" to-layer="1232" to-port="1"/>
		<edge from-layer="1150" from-port="0" to-layer="1273" to-port="1"/>
		<edge from-layer="1150" from-port="0" to-layer="1314" to-port="1"/>
		<edge from-layer="1151" from-port="0" to-layer="1153" to-port="2"/>
		<edge from-layer="1151" from-port="0" to-layer="1156" to-port="1"/>
		<edge from-layer="1152" from-port="0" to-layer="1153" to-port="3"/>
		<edge from-layer="1153" from-port="4" to-layer="1163" to-port="0"/>
		<edge from-layer="1154" from-port="0" to-layer="1156" to-port="2"/>
		<edge from-layer="1154" from-port="0" to-layer="1159" to-port="1"/>
		<edge from-layer="1155" from-port="0" to-layer="1156" to-port="3"/>
		<edge from-layer="1156" from-port="4" to-layer="1163" to-port="1"/>
		<edge from-layer="1157" from-port="0" to-layer="1162" to-port="1"/>
		<edge from-layer="1157" from-port="0" to-layer="1159" to-port="2"/>
		<edge from-layer="1158" from-port="0" to-layer="1159" to-port="3"/>
		<edge from-layer="1159" from-port="4" to-layer="1163" to-port="2"/>
		<edge from-layer="1160" from-port="0" to-layer="1162" to-port="2"/>
		<edge from-layer="1161" from-port="0" to-layer="1162" to-port="3"/>
		<edge from-layer="1162" from-port="4" to-layer="1163" to-port="3"/>
		<edge from-layer="1163" from-port="4" to-layer="1166" to-port="0"/>
		<edge from-layer="1164" from-port="0" to-layer="1166" to-port="1"/>
		<edge from-layer="1165" from-port="0" to-layer="1166" to-port="2"/>
		<edge from-layer="1166" from-port="4" to-layer="1212" to-port="0"/>
		<edge from-layer="1166" from-port="4" to-layer="1216" to-port="0"/>
		<edge from-layer="1166" from-port="3" to-layer="1174" to-port="0"/>
		<edge from-layer="1166" from-port="4" to-layer="1220" to-port="0"/>
		<edge from-layer="1166" from-port="4" to-layer="1224" to-port="0"/>
		<edge from-layer="1166" from-port="6" to-layer="1306" to-port="0"/>
		<edge from-layer="1166" from-port="3" to-layer="1178" to-port="0"/>
		<edge from-layer="1166" from-port="3" to-layer="1170" to-port="0"/>
		<edge from-layer="1166" from-port="5" to-layer="1257" to-port="0"/>
		<edge from-layer="1166" from-port="6" to-layer="1302" to-port="0"/>
		<edge from-layer="1166" from-port="3" to-layer="1182" to-port="0"/>
		<edge from-layer="1166" from-port="6" to-layer="1294" to-port="0"/>
		<edge from-layer="1166" from-port="5" to-layer="1253" to-port="0"/>
		<edge from-layer="1166" from-port="6" to-layer="1298" to-port="0"/>
		<edge from-layer="1166" from-port="5" to-layer="1265" to-port="0"/>
		<edge from-layer="1166" from-port="5" to-layer="1261" to-port="0"/>
		<edge from-layer="1167" from-port="0" to-layer="1170" to-port="1"/>
		<edge from-layer="1168" from-port="0" to-layer="1170" to-port="2"/>
		<edge from-layer="1169" from-port="0" to-layer="1170" to-port="3"/>
		<edge from-layer="1170" from-port="4" to-layer="1183" to-port="0"/>
		<edge from-layer="1171" from-port="0" to-layer="1174" to-port="1"/>
		<edge from-layer="1172" from-port="0" to-layer="1174" to-port="2"/>
		<edge from-layer="1173" from-port="0" to-layer="1174" to-port="3"/>
		<edge from-layer="1174" from-port="4" to-layer="1183" to-port="1"/>
		<edge from-layer="1175" from-port="0" to-layer="1178" to-port="1"/>
		<edge from-layer="1176" from-port="0" to-layer="1178" to-port="2"/>
		<edge from-layer="1177" from-port="0" to-layer="1178" to-port="3"/>
		<edge from-layer="1178" from-port="4" to-layer="1183" to-port="2"/>
		<edge from-layer="1179" from-port="0" to-layer="1182" to-port="1"/>
		<edge from-layer="1180" from-port="0" to-layer="1182" to-port="2"/>
		<edge from-layer="1181" from-port="0" to-layer="1182" to-port="3"/>
		<edge from-layer="1182" from-port="4" to-layer="1183" to-port="3"/>
		<edge from-layer="1183" from-port="4" to-layer="1186" to-port="0"/>
		<edge from-layer="1184" from-port="0" to-layer="1185" to-port="0"/>
		<edge from-layer="1185" from-port="1" to-layer="1186" to-port="1"/>
		<edge from-layer="1186" from-port="2" to-layer="1187" to-port="1"/>
		<edge from-layer="1187" from-port="2" to-layer="1190" to-port="0"/>
		<edge from-layer="1187" from-port="2" to-layer="1193" to-port="0"/>
		<edge from-layer="1187" from-port="2" to-layer="1196" to-port="0"/>
		<edge from-layer="1187" from-port="2" to-layer="1199" to-port="0"/>
		<edge from-layer="1188" from-port="0" to-layer="1190" to-port="2"/>
		<edge from-layer="1188" from-port="0" to-layer="1193" to-port="1"/>
		<edge from-layer="1188" from-port="0" to-layer="1240" to-port="2"/>
		<edge from-layer="1189" from-port="0" to-layer="1190" to-port="3"/>
		<edge from-layer="1190" from-port="4" to-layer="1200" to-port="0"/>
		<edge from-layer="1191" from-port="0" to-layer="1193" to-port="2"/>
		<edge from-layer="1191" from-port="0" to-layer="1196" to-port="1"/>
		<edge from-layer="1192" from-port="0" to-layer="1193" to-port="3"/>
		<edge from-layer="1193" from-port="4" to-layer="1200" to-port="1"/>
		<edge from-layer="1194" from-port="0" to-layer="1196" to-port="2"/>
		<edge from-layer="1194" from-port="0" to-layer="1199" to-port="1"/>
		<edge from-layer="1195" from-port="0" to-layer="1196" to-port="3"/>
		<edge from-layer="1196" from-port="4" to-layer="1200" to-port="2"/>
		<edge from-layer="1197" from-port="0" to-layer="1199" to-port="2"/>
		<edge from-layer="1198" from-port="0" to-layer="1199" to-port="3"/>
		<edge from-layer="1199" from-port="4" to-layer="1200" to-port="3"/>
		<edge from-layer="1200" from-port="4" to-layer="1203" to-port="0"/>
		<edge from-layer="1201" from-port="0" to-layer="1202" to-port="0"/>
		<edge from-layer="1202" from-port="1" to-layer="1203" to-port="1"/>
		<edge from-layer="1203" from-port="2" to-layer="1204" to-port="1"/>
		<edge from-layer="1204" from-port="2" to-layer="1328" to-port="0"/>
		<edge from-layer="1205" from-port="0" to-layer="1206" to-port="0"/>
		<edge from-layer="1206" from-port="1" to-layer="1245" to-port="0"/>
		<edge from-layer="1207" from-port="0" to-layer="1208" to-port="0"/>
		<edge from-layer="1208" from-port="1" to-layer="1229" to-port="0"/>
		<edge from-layer="1209" from-port="0" to-layer="1212" to-port="1"/>
		<edge from-layer="1210" from-port="0" to-layer="1212" to-port="2"/>
		<edge from-layer="1211" from-port="0" to-layer="1212" to-port="3"/>
		<edge from-layer="1212" from-port="4" to-layer="1225" to-port="0"/>
		<edge from-layer="1213" from-port="0" to-layer="1216" to-port="1"/>
		<edge from-layer="1214" from-port="0" to-layer="1216" to-port="2"/>
		<edge from-layer="1215" from-port="0" to-layer="1216" to-port="3"/>
		<edge from-layer="1216" from-port="4" to-layer="1225" to-port="1"/>
		<edge from-layer="1217" from-port="0" to-layer="1220" to-port="1"/>
		<edge from-layer="1218" from-port="0" to-layer="1220" to-port="2"/>
		<edge from-layer="1219" from-port="0" to-layer="1220" to-port="3"/>
		<edge from-layer="1220" from-port="4" to-layer="1225" to-port="2"/>
		<edge from-layer="1221" from-port="0" to-layer="1224" to-port="1"/>
		<edge from-layer="1222" from-port="0" to-layer="1224" to-port="2"/>
		<edge from-layer="1223" from-port="0" to-layer="1224" to-port="3"/>
		<edge from-layer="1224" from-port="4" to-layer="1225" to-port="3"/>
		<edge from-layer="1225" from-port="4" to-layer="1228" to-port="0"/>
		<edge from-layer="1226" from-port="0" to-layer="1227" to-port="0"/>
		<edge from-layer="1227" from-port="1" to-layer="1228" to-port="1"/>
		<edge from-layer="1228" from-port="2" to-layer="1229" to-port="1"/>
		<edge from-layer="1229" from-port="2" to-layer="1235" to-port="0"/>
		<edge from-layer="1229" from-port="2" to-layer="1238" to-port="0"/>
		<edge from-layer="1229" from-port="2" to-layer="1240" to-port="0"/>
		<edge from-layer="1229" from-port="2" to-layer="1232" to-port="0"/>
		<edge from-layer="1230" from-port="0" to-layer="1232" to-port="2"/>
		<edge from-layer="1230" from-port="0" to-layer="1281" to-port="2"/>
		<edge from-layer="1230" from-port="0" to-layer="1235" to-port="1"/>
		<edge from-layer="1231" from-port="0" to-layer="1232" to-port="3"/>
		<edge from-layer="1232" from-port="4" to-layer="1241" to-port="0"/>
		<edge from-layer="1233" from-port="0" to-layer="1235" to-port="2"/>
		<edge from-layer="1233" from-port="0" to-layer="1238" to-port="1"/>
		<edge from-layer="1234" from-port="0" to-layer="1235" to-port="3"/>
		<edge from-layer="1235" from-port="4" to-layer="1241" to-port="1"/>
		<edge from-layer="1236" from-port="0" to-layer="1238" to-port="2"/>
		<edge from-layer="1236" from-port="0" to-layer="1240" to-port="1"/>
		<edge from-layer="1237" from-port="0" to-layer="1238" to-port="3"/>
		<edge from-layer="1238" from-port="4" to-layer="1241" to-port="2"/>
		<edge from-layer="1239" from-port="0" to-layer="1240" to-port="3"/>
		<edge from-layer="1240" from-port="4" to-layer="1241" to-port="3"/>
		<edge from-layer="1241" from-port="4" to-layer="1244" to-port="0"/>
		<edge from-layer="1242" from-port="0" to-layer="1243" to-port="0"/>
		<edge from-layer="1243" from-port="1" to-layer="1244" to-port="1"/>
		<edge from-layer="1244" from-port="2" to-layer="1245" to-port="1"/>
		<edge from-layer="1245" from-port="2" to-layer="1328" to-port="1"/>
		<edge from-layer="1246" from-port="0" to-layer="1247" to-port="0"/>
		<edge from-layer="1247" from-port="1" to-layer="1286" to-port="0"/>
		<edge from-layer="1248" from-port="0" to-layer="1249" to-port="0"/>
		<edge from-layer="1249" from-port="1" to-layer="1270" to-port="0"/>
		<edge from-layer="1250" from-port="0" to-layer="1253" to-port="1"/>
		<edge from-layer="1251" from-port="0" to-layer="1253" to-port="2"/>
		<edge from-layer="1252" from-port="0" to-layer="1253" to-port="3"/>
		<edge from-layer="1253" from-port="4" to-layer="1266" to-port="0"/>
		<edge from-layer="1254" from-port="0" to-layer="1257" to-port="1"/>
		<edge from-layer="1255" from-port="0" to-layer="1257" to-port="2"/>
		<edge from-layer="1256" from-port="0" to-layer="1257" to-port="3"/>
		<edge from-layer="1257" from-port="4" to-layer="1266" to-port="1"/>
		<edge from-layer="1258" from-port="0" to-layer="1261" to-port="1"/>
		<edge from-layer="1259" from-port="0" to-layer="1261" to-port="2"/>
		<edge from-layer="1260" from-port="0" to-layer="1261" to-port="3"/>
		<edge from-layer="1261" from-port="4" to-layer="1266" to-port="2"/>
		<edge from-layer="1262" from-port="0" to-layer="1265" to-port="1"/>
		<edge from-layer="1263" from-port="0" to-layer="1265" to-port="2"/>
		<edge from-layer="1264" from-port="0" to-layer="1265" to-port="3"/>
		<edge from-layer="1265" from-port="4" to-layer="1266" to-port="3"/>
		<edge from-layer="1266" from-port="4" to-layer="1269" to-port="0"/>
		<edge from-layer="1267" from-port="0" to-layer="1268" to-port="0"/>
		<edge from-layer="1268" from-port="1" to-layer="1269" to-port="1"/>
		<edge from-layer="1269" from-port="2" to-layer="1270" to-port="1"/>
		<edge from-layer="1270" from-port="2" to-layer="1273" to-port="0"/>
		<edge from-layer="1270" from-port="2" to-layer="1281" to-port="0"/>
		<edge from-layer="1270" from-port="2" to-layer="1279" to-port="0"/>
		<edge from-layer="1270" from-port="2" to-layer="1276" to-port="0"/>
		<edge from-layer="1271" from-port="0" to-layer="1276" to-port="1"/>
		<edge from-layer="1271" from-port="0" to-layer="1273" to-port="2"/>
		<edge from-layer="1271" from-port="0" to-layer="1322" to-port="2"/>
		<edge from-layer="1272" from-port="0" to-layer="1273" to-port="3"/>
		<edge from-layer="1273" from-port="4" to-layer="1282" to-port="0"/>
		<edge from-layer="1274" from-port="0" to-layer="1276" to-port="2"/>
		<edge from-layer="1274" from-port="0" to-layer="1279" to-port="1"/>
		<edge from-layer="1275" from-port="0" to-layer="1276" to-port="3"/>
		<edge from-layer="1276" from-port="4" to-layer="1282" to-port="1"/>
		<edge from-layer="1277" from-port="0" to-layer="1281" to-port="1"/>
		<edge from-layer="1277" from-port="0" to-layer="1279" to-port="2"/>
		<edge from-layer="1278" from-port="0" to-layer="1279" to-port="3"/>
		<edge from-layer="1279" from-port="4" to-layer="1282" to-port="2"/>
		<edge from-layer="1280" from-port="0" to-layer="1281" to-port="3"/>
		<edge from-layer="1281" from-port="4" to-layer="1282" to-port="3"/>
		<edge from-layer="1282" from-port="4" to-layer="1285" to-port="0"/>
		<edge from-layer="1283" from-port="0" to-layer="1284" to-port="0"/>
		<edge from-layer="1284" from-port="1" to-layer="1285" to-port="1"/>
		<edge from-layer="1285" from-port="2" to-layer="1286" to-port="1"/>
		<edge from-layer="1286" from-port="2" to-layer="1328" to-port="2"/>
		<edge from-layer="1287" from-port="0" to-layer="1288" to-port="0"/>
		<edge from-layer="1288" from-port="1" to-layer="1327" to-port="0"/>
		<edge from-layer="1289" from-port="0" to-layer="1290" to-port="0"/>
		<edge from-layer="1290" from-port="1" to-layer="1311" to-port="0"/>
		<edge from-layer="1291" from-port="0" to-layer="1294" to-port="1"/>
		<edge from-layer="1292" from-port="0" to-layer="1294" to-port="2"/>
		<edge from-layer="1293" from-port="0" to-layer="1294" to-port="3"/>
		<edge from-layer="1294" from-port="4" to-layer="1307" to-port="0"/>
		<edge from-layer="1295" from-port="0" to-layer="1298" to-port="1"/>
		<edge from-layer="1296" from-port="0" to-layer="1298" to-port="2"/>
		<edge from-layer="1297" from-port="0" to-layer="1298" to-port="3"/>
		<edge from-layer="1298" from-port="4" to-layer="1307" to-port="1"/>
		<edge from-layer="1299" from-port="0" to-layer="1302" to-port="1"/>
		<edge from-layer="1300" from-port="0" to-layer="1302" to-port="2"/>
		<edge from-layer="1301" from-port="0" to-layer="1302" to-port="3"/>
		<edge from-layer="1302" from-port="4" to-layer="1307" to-port="2"/>
		<edge from-layer="1303" from-port="0" to-layer="1306" to-port="1"/>
		<edge from-layer="1304" from-port="0" to-layer="1306" to-port="2"/>
		<edge from-layer="1305" from-port="0" to-layer="1306" to-port="3"/>
		<edge from-layer="1306" from-port="4" to-layer="1307" to-port="3"/>
		<edge from-layer="1307" from-port="4" to-layer="1310" to-port="0"/>
		<edge from-layer="1308" from-port="0" to-layer="1309" to-port="0"/>
		<edge from-layer="1309" from-port="1" to-layer="1310" to-port="1"/>
		<edge from-layer="1310" from-port="2" to-layer="1311" to-port="1"/>
		<edge from-layer="1311" from-port="2" to-layer="1314" to-port="0"/>
		<edge from-layer="1311" from-port="2" to-layer="1317" to-port="0"/>
		<edge from-layer="1311" from-port="2" to-layer="1320" to-port="0"/>
		<edge from-layer="1311" from-port="2" to-layer="1322" to-port="0"/>
		<edge from-layer="1312" from-port="0" to-layer="1314" to-port="2"/>
		<edge from-layer="1312" from-port="0" to-layer="1317" to-port="1"/>
		<edge from-layer="1313" from-port="0" to-layer="1314" to-port="3"/>
		<edge from-layer="1314" from-port="4" to-layer="1323" to-port="0"/>
		<edge from-layer="1315" from-port="0" to-layer="1317" to-port="2"/>
		<edge from-layer="1315" from-port="0" to-layer="1320" to-port="1"/>
		<edge from-layer="1316" from-port="0" to-layer="1317" to-port="3"/>
		<edge from-layer="1317" from-port="4" to-layer="1323" to-port="1"/>
		<edge from-layer="1318" from-port="0" to-layer="1320" to-port="2"/>
		<edge from-layer="1318" from-port="0" to-layer="1322" to-port="1"/>
		<edge from-layer="1319" from-port="0" to-layer="1320" to-port="3"/>
		<edge from-layer="1320" from-port="4" to-layer="1323" to-port="2"/>
		<edge from-layer="1321" from-port="0" to-layer="1322" to-port="3"/>
		<edge from-layer="1322" from-port="4" to-layer="1323" to-port="3"/>
		<edge from-layer="1323" from-port="4" to-layer="1326" to-port="0"/>
		<edge from-layer="1324" from-port="0" to-layer="1325" to-port="0"/>
		<edge from-layer="1325" from-port="1" to-layer="1326" to-port="1"/>
		<edge from-layer="1326" from-port="2" to-layer="1327" to-port="1"/>
		<edge from-layer="1327" from-port="2" to-layer="1328" to-port="3"/>
		<edge from-layer="1328" from-port="4" to-layer="1332" to-port="0"/>
		<edge from-layer="1329" from-port="0" to-layer="1331" to-port="1"/>
		<edge from-layer="1330" from-port="0" to-layer="1331" to-port="2"/>
		<edge from-layer="1331" from-port="3" to-layer="1332" to-port="1"/>
		<edge from-layer="1332" from-port="2" to-layer="1333" to-port="0"/>
	</edges>
	<meta_data>
		<MO_version value="2022.1.0-7019-cdb9bec7210-releases/2022/1"/>
		<Runtime_version value="2022.1.0-7019-cdb9bec7210-releases/2022/1"/>
		<legacy_path value="False"/>
		<cli_parameters>
			<caffe_parser_path value="DIR"/>
			<compress_fp16 value="True"/>
			<data_type value="FP32"/>
			<disable_nhwc_to_nchw value="False"/>
			<disable_omitting_optional value="False"/>
			<disable_resnet_optimization value="False"/>
			<disable_weights_compression value="False"/>
			<enable_concat_optimization value="True"/>
			<enable_flattening_nested_params value="False"/>
			<enable_ssd_gluoncv value="False"/>
			<extensions value="DIR"/>
			<framework value="onnx"/>
			<freeze_placeholder_with_value value="{}"/>
			<input_model value="DIR\nanodet.onnx"/>
			<input_model_is_text value="False"/>
			<k value="DIR\CustomLayersMapping.xml"/>
			<layout value="()"/>
			<layout_values value="{}"/>
			<legacy_mxnet_model value="False"/>
			<log_level value="ERROR"/>
			<mean_scale_values value="{}"/>
			<mean_values value="()"/>
			<model_name value="nanodet_fp16"/>
			<output_dir value="DIR"/>
			<placeholder_data_types value="{}"/>
			<progress value="True"/>
			<remove_memory value="False"/>
			<remove_output_softmax value="False"/>
			<reverse_input_channels value="False"/>
			<save_params_from_nd value="False"/>
			<scale_values value="()"/>
			<silent value="False"/>
			<source_layout value="()"/>
			<static_shape value="False"/>
			<stream_output value="False"/>
			<target_layout value="()"/>
			<transform value=""/>
			<use_legacy_frontend value="False"/>
			<use_new_frontend value="False"/>
			<unset unset_cli_parameters="batch, counts, disable_fusing, finegrain_fusing, input, input_checkpoint, input_meta_graph, input_proto, input_shape, input_symbol, mean_file, mean_file_offsets, nd_prefix_name, output, placeholder_shapes, pretrained_model_name, saved_model_dir, saved_model_tags, scale, tensorboard_logdir, tensorflow_custom_layer_libraries, tensorflow_custom_operations_config_update, tensorflow_object_detection_api_pipeline_config, tensorflow_use_custom_operations_config, transformations_config"/>
		</cli_parameters>
	</meta_data>
</net>
